pretrained_model/pretrained_parameters.pth (torch, 172905 bytes, 8 tensors)

linear_relu_stack.0.weight f8 [64, 180]
000000 20 23 8d 44 45 9d dd bf 43 e0 0d dc 87 ee e7 bf
       -0.46272403425659725 -0.7478675172742516
000010 ad 2d 9a fd ec 7f 9b 3f d3 b9 2d 31 c4 0c df bf
       0.02685518548837045 -0.48515419771765983
000020 28 cf 89 d4 9e c0 e8 bf 5e 9c 8a c9 a9 a4 a9 3f
       -0.7735132361544617 0.050084405758121106
000030 f0 34 91 53 2b 4b c6 bf 4f f5 28 54 15 20 ba bf
       -0.17416898327284214 -0.10205205254256565
000040 7e 7f 38 96 c7 ac 82 3f b8 c6 3f 04 b1 85 bf bf
       0.009118613502380187 -0.12313371995676448
000050 2c 2c ae 18 a8 14 c2 bf 86 83 c8 c0 e2 d6 98 3f
       -0.14125539021583344 0.024257224098736006
000060 02 af 88 3b 54 22 c1 bf 7c e5 b4 b2 bb 52 ba bf
       -0.13386013895921428 -0.10282490838007691
000070 41 1e 56 37 1c 6b 77 3f ea a8 ec a6 a0 e7 c1 bf
       0.005717382640234415 -0.13988121176345852
000080 d3 e9 9c af 2b 22 b5 bf a3 a8 21 0f 00 98 60 3f
       -0.08255265271592487 0.002025604358142878
000090 9d f6 31 e2 c1 7e c2 bf 60 7a 0e 33 34 ae b6 bf
       -0.144493327566967 -0.08859564062593384
0000a0 b7 98 4e 94 bf c6 8b 3f 72 6a e5 83 1d 0a c5 bf
       0.013562676156493187 -0.16437119426958052
0000b0 98 67 1b b0 8f 7e b9 bf ff 43 d6 43 72 be 7b bf
       -0.09958742188919556 -0.006773420665369122
0000c0 de 2b 5a ef 02 84 c7 bf e5 3b 93 38 1c ee b7 bf
       -0.1837161701881475 -0.09347702389935326
0000d0 fa c1 b9 53 23 84 84 bf 5f 67 b7 fa 7e e9 c2 bf
       -0.010017658226588278 -0.14775073282253978
0000e0 92 84 34 0b 30 95 be bf d1 b6 1d 3c 12 22 81 bf
       -0.11946392320216351 -0.008365766963574302
0000f0 a3 2a 0f 22 f0 d4 e2 bf 33 bb 52 13 a3 c8 e4 bf
       -0.588493410608255 -0.649491822948994
000100 d3 13 dc 39 28 7f 66 bf 48 69 8b 3d 50 67 c1 bf
       -0.002746180120882327 -0.13596537594896518
000110 11 6f a7 63 0a cd b9 bf 93 f5 8a 17 71 ef 89 bf
       -0.10078492100677418 -0.01266373017403558
000120 05 e3 49 d5 ea a7 bd bf b5 62 03 7e f8 c0 b3 bf
       -0.11584346492044169 -0.07716324879164456
000130 57 34 b7 48 56 76 6f bf 8a 17 5e c9 b4 53 be bf
       -0.0038406071887267345 -0.11846475521278257
000140 8c 80 65 ca ab 87 b3 bf e3 2b da fb d3 12 96 bf
       -0.07628892604179976 -0.02155619835552248
000150 04 c5 45 a7 7d 03 bf bf f1 27 6d f1 df d8 b7 bf
       -0.12114701589395699 -0.09315299648474686
000160 74 e0 04 09 c4 63 88 bf 6a dc c4 4d a7 a5 be bf
       -0.011909038090934333 -0.11971517227799358
000170 41 af 83 c8 95 41 b3 bf 5e 5d 20 64 e0 02 88 bf
       -0.0752194990670292 -0.011724236541381824
000180 45 1a 9b 2e 26 85 e1 3f 52 e3 35 87 39 a0 e4 3f
       0.5475035581847086 0.6445586815671993
000190 ba 2d 0e 10 71 b3 e1 3f 6b 18 24 4e de 2a c0 3f
       0.5531544984418624 0.1263082391307678
0001a0 3d dc 8b 55 7a b1 e2 3f a8 53 a7 0e d1 0a da 3f
       0.5841647787882561 0.40691019469277956
0001b0 ba 5a 56 1e a3 8e e5 3f 1f 9c ce 06 37 ef b0 3f
       0.6736617653394525 0.06615013042629457
0001c0 41 69 43 83 f0 de b6 bf 50 01 02 a6 27 aa c1 bf
       -0.0893392868487455 -0.13800521474696348
0001d0 7f b5 19 8d 3f 4f b0 bf e3 10 73 83 f4 78 e0 bf
       -0.06370923228106128 -0.5147650306103312
0001e0 86 c8 df f2 8a 8b c2 3f 63 01 cd a7 f1 05 b6 3f
       0.14488350733842398 0.0860281977338722
0001f0 53 f5 9b e6 01 ef b6 3f 81 0f d1 0f ac fe dc bf
       0.08958446388347356 -0.453043952413502
000200 cb d9 2f a4 56 f3 c1 3f 34 dc 9e 18 04 cb a1 3f
       0.1402385999387675 0.034752014165342265
000210 b8 c0 ff 7a 67 2a d5 3f 0a 41 86 8c ea cd a2 bf
       0.33071314822792486 -0.036727265981541704
000220 2d c9 85 f7 b0 9e c9 3f e7 3d a0 41 17 6c a8 3f
       0.20015537344040393 0.04769966770265537
000230 1e 58 9e 52 88 16 ce 3f 8a 80 7c 3c f9 cd a9 3f
       0.2350626376543809 0.0503995786987171
000240 d0 08 6a 62 5a e8 c6 3f 1c 2b 13 55 f7 b0 a6 3f
       0.17896585278874122 0.04431889451514889
000250 d8 45 72 0c f0 5f ae 3f 0a 97 3d e5 8e 17 d3 3f
       0.059325696486790924 0.2983128775289151
000260 99 b0 69 8e f5 0c b1 3f 47 74 c2 50 7c 43 af 3f
       0.06660399176479571 0.061061749323223107
000270 e9 13 46 0e 18 d9 7a 3f a9 e4 3b 36 7e 5a ae bf
       0.006554693191337593 -0.059284156914097004
000280 dd 5e 0a 0a f6 cb a7 bf 9a 44 d3 2c 6e e4 43 3f
       -0.046477974630020326 0.000607065006670865
000290 db 37 6d 90 4f 1b c3 bf 13 49 73 ba d8 94 a3 bf
       -0.1492709593971416 -0.03824498439793635
0002a0 95 39 e2 48 ea ea cc bf ba c0 ba 08 31 f8 b8 bf
       -0.22591904219411832 -0.09753710234758986
0002b0 a0 30 81 ea b3 15 c1 bf a4 63 1d e1 a5 31 d0 bf
       -0.13347481680319095 -0.2530302713762984
0002c0 c3 11 8a 6b 13 9c 9e bf ea 17 5e b7 90 10 74 3f
       -0.029892257155113244 0.004898610399214557
0002d0 2d e5 a9 b2 35 3d 79 3f 35 8b 76 82 f1 49 cc 3f
       0.006161889798584935 0.22100657339350396
0002e0 28 da ab fd b1 cb b6 3f 67 3d 9b f1 b8 5a 8d bf
       0.08904564326426423 -0.014333195565454827
0002f0 d0 f5 51 d5 80 5e 5c 3f 72 82 12 37 b7 d8 c3 bf
       0.0017315157067793081 -0.15505113782002727
000300 dc b6 66 31 dc 66 bd bf 69 80 b5 05 ff b0 8d 3f
       -0.11485077100834523 0.014497749673580711
000310 c9 44 69 d3 86 3d bb bf f4 dd 86 c7 ea f5 b8 bf
       -0.10640757237821953 -0.09750239726314885
000320 59 2e ea 5f 04 fd af bf 09 6a d9 33 5e 62 ba 3f
       -0.062477242191644584 0.10306347623683378
000330 7d 7c 41 5d 59 89 a5 3f d3 2f 45 62 c3 f6 ba 3f
       0.0420635153138784 0.10532780789543432
000340 c6 34 96 c2 7f 89 c2 3f aa 69 56 31 c8 64 80 bf
       0.14482113839441108 -0.00800472641531232
000350 4e dd 87 12 ae e4 98 3f 6a 23 93 c7 ee 43 cc 3f
       0.02430984485724013 0.22082314247952733
000360 8a 37 63 3a fd 65 b5 bf 44 39 f6 ec f3 f4 80 3f
       -0.0835874812648553 0.008279710453987683
000370 e8 f4 be 88 10 e3 b1 bf e7 39 f3 6e 5f 5f c5 3f
       -0.06987098063014552 0.16697304646954977
000380 8c 71 a0 b0 b5 d6 d5 bf 8d d4 b4 6c 86 54 a6 3f
       -0.3412298416967807 0.0436136253069118
000390 a9 94 29 09 0c 91 dc 3f 52 08 ad a9 3d f1 c3 bf
       0.4463529672123721 -0.15579958710628944
0003a0 5c 7a 6e 1e be 73 e4 bf 53 c1 10 c3 66 36 91 bf
       -0.6391287416807461 -0.016809087425089086
0003b0 cb 1e 28 11 d8 44 a9 bf c8 81 96 39 0f 57 ce 3f
       -0.04935336312706581 0.2370318442526822
0003c0 6c 1f 90 c7 c1 d6 e8 bf 7b 5c 25 ed 7e dd 9d 3f
       -0.7762154481615489 0.02916525194572415
0003d0 af f7 68 06 88 ea bb 3f 0c 0f 3f 21 e9 be 92 3f
       0.10904741436476571 0.018306391386217633
0003e0 0f 6b ba 55 bc 18 b5 bf 47 90 b8 eb b8 20 c0 3f
       -0.08240868657086885 0.12599860677539906
0003f0 b3 ca 57 94 f5 a8 63 3f 16 4c b5 0c bf f9 ae 3f
       0.0023999020074766063 0.06049916296128559
000400 40 3d 28 7e 94 60 c4 bf 0f 5b cd 82 7f a8 a3 bf
       -0.1591973892213705 -0.038394913403570034
000410 ce a7 cc 69 cb 5f d5 bf 12 5f db 33 88 60 c6 bf
       -0.3339718373487103 -0.17482092411113875
000420 89 82 6e 48 5b 54 aa bf 4f af 54 35 3f 23 bd bf
       -0.05142483958411954 -0.11381907512685284
000430 83 ae 57 5f e4 10 c5 bf 6b af 40 90 66 d9 d0 bf
       -0.16457800536533193 -0.2632690819470926
000440 69 be 7c d8 05 ba ac 3f 0d 74 35 37 d3 75 b9 bf
       0.05610674159686086 -0.09945411775466102
000450 e0 b2 f0 48 f5 33 b2 3f da f6 fa 8d 83 3d d0 bf
       0.07110531836287803 -0.253754509594598
000460 dd 26 da 09 59 08 b9 3f 52 20 c0 f3 ce ad 9e bf
       0.09778362741976872 -0.02995990145430511
000470 32 78 d5 5e 0d fa bc bf e4 b3 62 f3 94 31 a3 bf
       -0.11319049420623697 -0.03748765440955262
000480 76 38 31 99 b8 f8 b9 3f 0c 9b de e2 3d 76 b0 3f
       0.10145143260999298 0.06430422581489043
000490 a4 89 46 3e 26 ba 97 3f 3f 5c 9a 6d 3f 22 a4 3f
       0.023171041060445 0.03932378971983796
0004a0 65 4d 24 f6 a6 75 c0 3f b7 07 62 5a 20 5c d1 3f
       0.12859046000140065 0.2712479479451945
0004b0 cc 23 45 53 30 03 c8 3f c9 9f ef 2c 08 f1 c4 3f
       0.1875973135559249 0.16360571092741186
0004c0 95 60 7d 93 95 77 97 3f 15 b0 bf 0a 6f de c1 3f
       0.022917115332660904 0.13960063958018112
0004d0 60 70 b7 a2 32 c5 a7 bf 52 93 fe b8 85 ad cd 3f
       -0.046426374781476154 0.2318579819958822
0004e0 1d c6 82 91 3e d6 ca bf be 6d d1 0d a0 89 c1 3f
       -0.2096632204534651 0.1370124881239984
0004f0 c7 74 8c bb ed 29 c0 3f 4e d1 d5 9c 79 1a c7 3f
       0.12627956063889753 0.1804954543873784
000500 2b e5 79 c8 9a 64 8b 3f f3 96 34 b1 24 f0 96 3f
       0.013375481837317146 0.02240044910026646
000510 08 d9 b0 15 e6 fe d1 bf 2b 63 83 a6 3b da d6 3f
       -0.2811827861618359 0.35706988583619886
000520 83 d8 86 7b bb 72 b8 bf 8d ad e6 b2 25 49 b7 3f
       -0.09550067678250866 0.09095988862707412
000530 79 e2 a3 b3 86 6f 6e bf a9 41 43 18 23 35 ba 3f
       -0.003715289201064839 0.1023733076319845
000540 57 b8 49 99 7e ab 9a bf 6e 43 7b df 53 bc b8 3f
       -0.026044824701266425 0.0966236515626073
000550 61 e5 a5 c4 82 5f ab bf a0 1d a7 41 97 b1 5e 3f
       -0.053463064675223 0.0018733956445532232
000560 bc b5 60 39 e9 f3 92 bf 4d 8a d9 af 98 de c4 3f
       -0.018508571745931 0.16304310404219038
000570 a5 cd ac e2 ea ed b9 3f 03 17 57 62 3a 56 b9 bf
       0.10128658327157909 -0.09897198582538284
000580 a6 01 86 41 35 69 98 bf 28 30 ad 3a 4e 06 c3 3f
       -0.023838836788401395 0.14862993111671696
000590 0a 67 d9 7f 8a f6 b5 3f 36 66 0c 67 60 af a4 bf
       0.08579316731757217 -0.04040051706233465
0005a0 c6 28 f3 cd 2a fc f4 bf 59 24 cc 3b b3 d3 06 40
       -1.3115642590442333 2.8533692046808423
0005b0 70 e1 a3 22 b6 49 b1 bf b1 3a cd 74 4c ac f3 bf
       -0.06753099771220206 -1.2295651018682003
0005c0 c1 8b 30 6c 11 4d 06 40 61 f1 80 21 22 12 bc bf
       2.7876308872523343 -0.10965169256173148
0005d0 58 67 16 b2 18 6c e0 bf 7a cb 16 eb 16 f6 e2 3f
       -0.5131953695556417 0.5925402251799448
0005e0 5d 1b 98 6f 02 e6 64 3f ee 12 bb 75 da f7 d1 bf
       0.00255108333363145 -0.2807527684893064
0005f0 17 d5 92 17 b9 cf dc 3f 22 72 80 c1 01 23 8b 3f
       0.4501784067354761 0.013250364034370913
000600 e4 94 94 81 ef ac 98 bf 24 58 73 20 6e f7 c2 3f
       -0.024097196849784633 0.14817596992969684
000610 ab a5 bb e7 07 36 7c 3f d6 07 97 e0 5a d3 c4 3f
       0.0068874653622769495 0.162700042403286
000620 26 29 25 76 ea c2 af bf 1f 41 e6 c0 f7 6f 6f bf
       -0.06203396503640794 -0.003837570088940492
000630 ad 1b c9 c7 60 65 ca 3f de 3d ad 42 8d 37 c8 bf
       0.20621881251483157 -0.18919530635547138
000640 b5 8e ff bc 79 ed 63 3f f0 41 36 1b 7c 37 d3 3f
       0.0024325730992006086 0.300261522840656
000650 33 b6 2f 73 a5 b7 d3 bf 1c 3d 17 c0 82 66 7f bf
       -0.30808387993497205 -0.007666121238300929
000660 5c ca 80 70 38 51 d5 3f da 1c 1f 4b 56 9d d6 bf
       0.33308230387334503 -0.3533530934914332
000670 c8 40 66 ab 71 48 66 bf b7 a2 a6 84 9c 69 d5 3f
       -0.0027200908763874466 0.3345710082453865
000680 fa fd cb 21 13 53 d8 bf 73 7a c6 f1 f0 11 7d bf
       -0.3800704793975168 -0.007097188176344293
000690 ab bf 14 9f 4c b8 c4 3f cd bf 10 4b ec 77 ca bf
       0.1618743683588922 -0.2067847601442722
0006a0 8e 34 98 87 b2 18 7e bf c2 29 62 dd fc 88 d4 3f
       -0.007347772008427301 0.3208610689113379
0006b0 06 f3 d2 ff 45 e1 d6 bf 3f de e3 3a dd 8c 6e bf
       -0.35749959929289366 -0.0037292786502083615
0006c0 ac 83 4d 26 a9 7c d1 3f bf 04 90 22 3b 07 d5 bf
       0.27323368778712154 -0.3285663449788209
0006d0 80 ac 58 c5 74 6d 6e bf 24 c5 48 75 a7 5a d0 3f
       -0.003714302127965363 0.2555330891946872
0006e0 97 9f 1c c2 0c 2a d3 bf 42 57 33 90 cf fb 7d bf
       -0.29944151836616 -0.007320223611903933
0006f0 c9 e9 e3 c6 4a 2b cb 3f bb 5d f6 f4 05 b2 cf bf
       0.21225866996230838 -0.24762033902218925
000700 f4 dd c4 f8 9b 04 3a bf a1 89 60 c6 54 6a c9 3f
       -0.00039700324920796605 0.19855746923810805
000710 9c d7 05 c5 6d 95 cc bf 4e df 1b 21 b5 0e 5c bf
       -0.22331020469908658 -0.0017124909249428169
000720 6c dc 9e 7e 0a e2 e8 bf 03 ae 2e b0 32 cd e9 bf
       -0.7775928948457369 -0.8062985840855962
000730 8b b2 30 e8 e0 27 ea bf 50 14 94 89 37 5f de bf
       -0.8173679861989326 -0.47456158099550283
000740 e6 13 8d 5e 94 38 f1 bf a8 e5 8d d6 e7 66 e8 bf
       -1.0763133710290673 -0.7625617208970441
000750 ea 25 d4 4b f1 88 ec bf d3 a4 87 18 b9 46 ed bf
       -0.8917166214970937 -0.91488318243969
000760 2f a4 bd 1d 49 12 d1 3f 74 53 06 2b 35 6e d7 3f
       0.26674106506704026 0.3661015434420769
000770 75 17 ca b0 a4 3a d0 3f 26 b7 35 a1 52 c5 dc 3f
       0.25357930435745085 0.4495436262430864
000780 a4 e2 a5 59 f3 76 d6 3f f0 93 b3 76 2e c0 d8 3f
       0.3510101676434181 0.386729827804003
000790 99 8e 01 9b dc e6 d7 3f 7f cd ff b9 3c 4a dd 3f
       0.3734656823855658 0.45765607990252727
0007a0 a5 aa 20 c5 74 5e c3 3f f4 9b 0a 56 b8 3f 81 3f
       0.15132007241603165 0.008422317624832566
0007b0 08 a4 c9 10 c4 54 bc 3f c1 d2 c1 7d 7f be bb 3f
       0.11066842470030747 0.10837551899187316
0007c0 76 75 e1 c5 22 c9 a9 bf a4 84 29 f1 83 ba b4 3f
       -0.05036266961608764 0.08097099912403621
0007d0 ee 5f 03 75 84 38 a1 3f 1d ad d8 a5 eb f9 a5 3f
       0.03363431862243248 0.0429223670911034
0007e0 6d 99 75 07 8c e7 a8 3f 77 47 e0 37 37 75 b0 3f
       0.04864156333023826 0.06428856958544125
0007f0 ad 6c ce d3 30 02 c9 3f c4 18 7e 57 15 05 d5 3f
       0.19537935583216406 0.3284352640552124

linear_relu_stack.0.bias f8 [64]
000000 ba 0f 5b 3b 89 33 00 c0 99 cd 3e b9 d2 95 f0 3f
       -2.025164092747187 1.0365779148240561
000010 bf 65 8c dd cb dc f0 3f b8 9b a9 17 6d 09 f2 3f
       1.0539053587184382 1.1273013042752904
000020 6c 6a f5 36 ea f1 ff 3f 58 56 b1 bb 14 30 01 40
       1.9965612551519838 2.148477045392422
000030 9b 26 2b 35 8f ba 12 c0 dc 9b e8 11 03 12 de bf
       -4.682186918982235 -0.46984936474694705
000040 7e 01 ca ea ea 62 05 c0 6f 3b 12 1f 38 7c f3 bf
       -2.673299631395081 -1.2178269590110309
000050 05 92 3d d9 77 0b 03 40 3d a8 fa 00 88 dd bc 3f
       2.3805996868052284 0.11275529884247333
000060 4d 1c 83 84 cc 40 d5 bf 41 f0 c4 ad 40 ee 04 c0
       -0.33208001080169397 -2.6163343024946077
000070 90 73 ae fd 33 ed ec 3f a2 26 83 88 2e 62 11 c0
       0.9039554552760922 -4.345880635266129
000080 1e ac 43 5a c5 0c 00 40 90 9d 5a e1 7d d8 0d c0
       2.006235795202442 -3.7307088475969934
000090 b2 06 25 04 21 d5 dc bf 60 ef cd f7 6d b7 e7 bf
       -0.450508359954351 -0.7411413040094708
0000a0 12 f9 89 2e b6 37 02 c0 ad d0 74 dc c6 f1 06 40
       -2.27720295294342 2.868055078806796
0000b0 51 9e 82 dc d4 21 02 40 f3 55 42 ef 41 9d fe 3f
       2.266519282089384 1.9133929582652598
0000c0 a3 1d 28 50 c7 1f f1 bf 1f 07 64 7a 6b 98 d2 3f
       -1.07025843917095 0.29055296852321705
0000d0 0a 98 4b c9 ca 34 0b c0 b9 9a d6 d0 52 2e e9 bf
       -3.4007774091906002 -0.7869047240136161
0000e0 ba e7 12 2d 4f ab c9 bf c8 cd 15 cc af 8e fc bf
       -0.20054044438239577 -1.7848356220318795
0000f0 9f 67 ac d8 ca 1f ed bf 9c 18 5e 05 e2 b0 11 c0
       -0.9101309043792191 -4.422737201564953
000100 95 d2 16 d7 fe 43 09 c0 5e 6c 31 71 20 0d d2 3f
       -3.1582009128417874 0.28205119184503313
000110 45 79 f2 d8 a3 42 d9 3f 88 62 17 31 6e 52 00 c0
       0.3946923845886839 -2.0402492366086484
000120 61 f3 e2 95 ee ae fb bf 97 a6 5a 13 61 c4 c1 bf
       -1.7302080016081265 -0.13880551762604362
000130 11 fa a7 73 eb 2a f7 bf ac 2e 47 73 ac 3c f0 3f
       -1.4479784505671243 1.0148128989266452
000140 1a d4 58 2a ad 5d e3 3f 44 8a 7d a6 6a c5 01 c0
       0.605185110768278 -2.221394825655155
000150 33 ec 95 b9 fc 29 e5 3f 81 73 5c 93 52 90 6d bf
       0.6613753914565507 -0.003608857422376877
000160 88 9b 1b 79 77 61 c2 3f ec 79 ea 77 69 a0 fd 3f
       0.14359944737881514 1.8516630825248468
000170 4a 0a b4 f6 c3 59 10 40 ed 25 3c f0 da 57 03 c0
       4.087661604632169 -2.417898060641838
000180 8e 9b e4 02 c1 94 08 40 82 1b 9c 3a d1 7a 00 c0
       3.072633764840652 -2.0599693850412573
000190 3c 16 96 3f 21 c1 f7 bf 21 92 64 da 20 8a f4 bf
       -1.4846508487547814 -1.283722737404908
0001a0 a1 2d b2 bd f5 a0 06 40 0e e0 3e 80 1e ee 1a c0
       2.828593713760441 -6.732538226926421
0001b0 46 14 4e 3f 0b 1f f9 bf c8 69 12 ac 6b 99 eb bf
       -1.570079085621971 -0.8624780998973671
0001c0 72 df a4 87 d2 d1 ec bf b8 f9 a9 08 df a0 f3 3f
       -0.9006130837724255 1.2267752016483495
0001d0 2f 33 16 f0 a0 6b ff bf f6 61 17 52 47 54 12 c0
       -1.9637765291583482 -4.582303316762127
0001e0 ea a0 c4 dd 9e 36 ea bf 5d fc 7c c9 6b 6c 08 c0
       -0.8191675502212352 -3.0529399625079763
0001f0 0f d4 3d 73 7b f4 f7 3f bb eb 33 ee e3 40 04 c0
       1.4971880437490233 -2.5316847428889253

linear_relu_stack.3.weight f8 [64, 64]
000000 38 96 a4 00 2c 00 b0 3f 5f 98 4e c1 47 4a 9b bf
       0.06250262275406093 -0.02665054433205005
000010 d4 7f c0 f2 d4 da cd 3f 7e 44 33 21 60 56 e3 3f
       0.23324071744082053 0.6042938850824979
000020 11 df 68 9c 93 2b de 3f d8 d7 07 c9 76 2e c8 bf
       0.47140970491771933 -0.18891796890210233
000030 44 45 7a db ae d8 99 bf 9e 4e 71 04 d1 8f be 3f
       -0.025240642686701578 0.11938196524107034
000040 42 05 2a eb 4c eb f1 3f e9 3d 94 a2 55 42 f5 bf
       1.1199464021777463 -1.3286949492211255
000050 18 94 95 21 dc 71 d2 bf 39 b2 a2 8c 06 69 c7 bf
       -0.2881994560214607 -0.18289262644738516
000060 71 a6 c4 07 86 f7 81 bf 6e 88 28 83 6a fa b4 bf
       -0.008772894966188024 -0.08194604589565
000070 15 19 3e c3 cc a3 c8 bf 35 16 fd c9 cd 74 82 3f
       -0.19249877484634995 0.009011848189071173
000080 bd 71 7e 4f 2f db ac bf ad 87 f9 f0 87 87 c6 bf
       -0.0563597473658066 -0.1760110785135657
000090 8f 5c 08 49 e6 d2 cf bf 06 2f 75 b1 4b 5b 95 bf
       -0.24862364355133024 -0.02085607786766188
0000a0 eb 0f 6e 10 b3 28 e7 3f 11 2c 38 17 3a f3 e0 bf
       0.7237181969544485 -0.5296907857422203
0000b0 17 8f 58 a3 c6 28 f2 bf 2d b4 a0 c6 e9 08 d0 bf
       -1.1349550610256693 -0.2505440177654375
0000c0 e9 ea 13 61 a1 a8 56 3f a5 5e 68 ae 71 10 ac 3f
       0.0013829780548905663 0.054812958278657654
0000d0 c9 f8 94 e7 4c 18 b3 bf 97 27 31 05 c5 a7 ad 3f
       -0.07458954480987069 0.05792060554865868
0000e0 27 9d c7 8f b8 5a a2 bf 76 ac ea 4b 1b 2c a5 3f
       -0.03584839587329674 0.04135213185994584
0000f0 71 8b b9 bf 43 18 a7 bf c4 e0 7c 22 45 fa b0 bf
       -0.0451069995440524 -0.06631881801593226
000100 b3 d1 9e 82 83 ba cf bf 1a 62 91 34 08 ff b4 bf
       -0.24787944677303883 -0.08201648028751443
000110 68 14 3f fd 48 87 d4 3f e4 f0 39 31 14 3c 9b 3f
       0.32075714808553935 0.026596370224511015
000120 00 bb 52 9f 66 b3 99 3f aa 1f 31 5c 9b f0 8d 3f
       0.025098422502817463 0.014619077445004642
000130 68 2f 7d d6 9b fa 8f bf f2 b9 64 b8 9d d6 d6 3f
       -0.015614716990647273 0.356849126884213
000140 43 7f 17 ad 5b 86 c2 3f 5b d4 5b 29 e3 4d bd bf
       0.14472528411624283 -0.11446971664175136
000150 c0 05 79 c5 d9 d2 b2 bf e5 69 64 1c fc 8f aa 3f
       -0.07352982588874735 0.0518797669085023
000160 d0 2e 01 9e 1e 95 8e 3f db 83 38 be 16 55 d9 bf
       0.014932860562246658 -0.39581841064688
000170 b8 8a a5 8a cd 60 f3 bf 4b 60 98 63 d9 ad a4 bf
       -1.2111335197338757 -0.04038886395227389
000180 74 49 d3 8e 3e ca dd bf 9e 57 9a 2a 1e 14 25 bf
       -0.46546901653086725 -0.00016081684343721437
000190 fc fe b1 f1 36 3a 61 3f b6 9b 81 ec aa 55 6d 3f
       0.0021029542090785763 0.0035808885914323197
0001a0 4b 83 40 be 64 ad 0a c0 3f ce 16 e8 a6 d6 f7 3f
       -3.334664808601166 1.4899052682857385
0001b0 49 83 ae d5 f5 95 8d 3f 09 cd ec 83 3a 20 b9 3f
       0.014446182807491008 0.09814801903558047
0001c0 ac e5 59 89 ac 70 d2 3f 59 dc f9 fc 80 bd f2 3f
       0.28812707341384214 1.1712655908466074
0001d0 4a 6b e6 d2 b8 79 ac 3f 59 d2 af dc 46 81 ca bf
       0.055616164917600644 -0.20707021499369452
0001e0 2c 5b 65 28 e5 9e c2 bf 3d 00 fe ad 49 3a bc 3f
       -0.14547409508187437 0.11026440141540746
0001f0 88 cb 8b d0 29 fe cb bf 92 9f 83 33 02 9c a4 3f
       -0.21869394953645505 0.040252751148556545
000200 0f 2f 5d 34 44 44 c0 bf a8 62 a7 44 e3 7a cc 3f
       -0.12708332592807678 0.2225002370094178
000210 75 a1 12 fb 00 b0 6a 3f 60 38 66 68 14 91 c9 3f
       0.0032577532916386273 0.19973998162862738
000220 92 29 15 c3 97 9a c2 3f 0b f8 93 41 67 78 e6 bf
       0.14534279847641735 -0.7021976738758452
000230 c2 3f 83 69 b1 d2 c3 bf a9 99 72 08 22 fc c0 3f
       -0.1548673405836763 0.13269448673709164
000240 f4 d8 c5 ac 02 a0 e3 bf 9c 22 1e ab 98 39 bd bf
       -0.6132825254888119 -0.11416010072401622
000250 02 03 22 c9 4f 2b e5 bf aa 1f 70 5b 05 4a a3 bf
       -0.6615370682121411 -0.037674109851706675
000260 55 3a 12 f6 44 31 d6 bf cc 4a 88 1f 70 39 bb 3f
       -0.34675716429129483 0.10634518403848431
000270 91 40 02 a8 40 89 b8 bf a7 05 c1 87 42 9c f3 3f
       -0.09584430791642463 1.225649385727914
000280 39 6b cc f5 06 67 df bf f3 2e c1 e9 28 31 e1 3f
       -0.4906632805229268 0.5372509542007421
000290 2a f5 58 47 47 f8 a5 bf ea 01 ae 35 d7 9d dd 3f
       -0.04290983911458064 0.4627588295188888
0002a0 df 58 49 61 d0 44 b7 3f 95 ab 17 25 31 73 db bf
       0.09089376807364456 -0.4289057600241731
0002b0 2a d2 61 db 18 75 df 3f 5f 7f e1 9b f1 7a ac 3f
       0.49152203964266283 0.05562548663942723
0002c0 99 cb 9d 50 0b 83 91 3f 3f 8a 36 22 4f d7 cf 3f
       0.01710145644706138 0.248758212762441
0002d0 63 85 51 1b d6 a8 d4 bf aa 0a aa c7 00 45 c1 bf
       -0.32280495326820907 -0.13491830586652515
0002e0 bc 2a 37 e7 61 e2 b9 bf dc ee cb 7a 66 2c b5 bf
       -0.10111057181272093 -0.08270874498333164
0002f0 55 1d 0b e0 23 93 9e bf d5 b5 61 3b 1a c5 f0 3f
       -0.029858170079731867 1.048120719871226
000300 e7 24 53 bc 85 99 c5 bf ce 80 97 40 07 36 a5 3f
       -0.1687476319841956 0.041427828440420464
000310 01 ca 30 39 37 90 02 c0 18 49 cb 6b 4a 79 d3 bf
       -2.3204178302778478 -0.3042779972721674
000320 39 21 d8 84 e9 54 d7 bf 77 22 67 e7 0b b8 d6 bf
       -0.36455762837478606 -0.35498330686508645
000330 28 71 97 03 25 18 ee 3f e0 f1 87 4b 18 c5 c1 bf
       0.9404473371646747 -0.13882735908545296
000340 b9 9a ed e7 6c 1e b3 bf 80 f7 c1 37 e0 9b a1 bf
       -0.07468300497348936 -0.03439236336360718
000350 20 3f e9 c7 04 7c cf 3f 53 47 c0 ac 11 e4 c5 bf
       0.24597224961552744 -0.17102261481391653
000360 46 f1 ec 2c 99 6a c7 3f 9c 4c 61 1b 31 a3 d8 3f
       0.18294062322264376 0.3849604384788081
000370 d8 95 e0 44 d5 e7 c6 3f c7 e5 ce 74 1b 0e bc 3f
       0.17894998419903518 0.10959025956881084
000380 3e 8a dd e8 8d 46 b3 3f 45 4b 62 49 64 6f ba bf
       0.07529532370748712 -0.10326220313644992
000390 24 e7 18 df 67 64 b2 bf e8 01 57 2f 50 83 c8 bf
       -0.07184457012854445 -0.1915073615218852
0003a0 b5 60 f0 91 68 d7 c2 3f 12 b8 50 d5 9f ff d4 3f
       0.14719874502111954 0.32810207206318964
0003b0 2c 91 52 5d ae 4c dd bf 4e a5 26 b7 ab 90 dc 3f
       -0.4578052436211404 0.44633000264964984
0003c0 7b e8 7e c6 b1 ff cd bf 33 57 c2 d1 92 56 c8 bf
       -0.2343656748979049 -0.190142013951737
0003d0 30 3d a3 c9 5a 08 d9 bf ed 15 4d 3e 42 ac f3 bf
       -0.3911349267118167 -1.2295553620946251
0003e0 a8 5e 6b d7 e8 d6 b8 bf d6 d7 34 69 88 31 9c bf
       -0.0970292592932035 -0.027532702847757516
0003f0 f3 bc 1c f8 c8 20 d3 bf c5 76 be 9b f6 e8 9f bf
       -0.29887603978836735 -0.031162122016772615
000400 0c 60 3b ae 42 4c 93 bf 91 20 02 ad 0d 5c 6f bf
       -0.018845598110459647 -0.0038280741792427538
000410 0b bf fc 07 a9 c1 c9 3f af a5 2e ac 5d 4a c1 3f
       0.20122254266743086 0.1350819674237704
000420 9b 77 91 2f cf fa dc 3f c6 bb ab 29 7b f9 b2 bf
       0.45280818600974165 -0.07411927955011696
000430 03 88 5b 24 b0 c3 cb bf bf 27 0d a2 be 89 91 bf
       -0.21690942549963674 -0.017127016678649683
000440 65 f0 31 cf 49 db c7 bf 2f 6a c6 d4 23 65 07 c0
       -0.18637964837023727 -2.924384748749865
000450 3c 2e 9a 5a db 39 ef 3f e7 5a e7 af e0 33 bf bf
       0.9758126039100214 -0.12188534063839605
000460 b5 e7 9a 1c 3a d5 7c bf c7 ed 41 12 fb 2b bf bf
       -0.007039286612490804 -0.12176484294643962
000470 f3 66 2c fb eb f5 f3 bf cd a8 4a 1b 70 3a ff bf
       -1.2475395022833566 -1.9517670694427125
000480 9a df 2d 12 c6 58 b0 3f f7 e8 6b 89 8c 23 c2 bf
       0.06385457938983877 -0.14170986852679565
000490 5d 93 bc fb a0 51 ca bf 75 7b 2e be 23 1c a6 3f
       -0.20561611453845333 0.0431834382682074
0004a0 c6 c1 5e b8 62 ed c8 3f 2a f6 04 e4 27 7b d2 bf
       0.1947444343800397 -0.2887668349029321
0004b0 27 a6 52 c3 57 39 b2 3f 15 4f 26 c7 8a 4d f4 bf
       0.07118748205780233 -1.2689311770709015
0004c0 ae c9 9d 86 e7 93 b5 bf 18 7e 43 a0 cf 44 a9 bf
       -0.08428809200794404 -0.049353111566002805
0004d0 11 22 0e bb 18 19 cb bf 65 63 d9 18 30 25 9c bf
       -0.21170338758044285 -0.02748561050097766
0004e0 6d 75 be a2 f0 97 78 3f 95 e3 f7 5a 40 b8 94 bf
       0.006004276259685565 -0.02023411326624432
0004f0 2f fc eb f4 74 01 7a 3f a1 2a a5 eb 5c e8 ca 3f
       0.006349045622072543 0.21021615511047734
000500 51 a5 4c 93 48 12 b9 bf 65 44 4c 5f bb f6 b6 bf
       -0.09793523403336236 -0.08970233036622373
000510 01 62 e1 f3 d5 49 b4 bf a2 00 cc c2 2e 2b a6 3f
       -0.07925164417373055 0.0432982075490156
000520 c1 2f 2d 25 8f bd 96 3f 52 eb b7 49 08 32 9c bf
       0.02220748581321153 -0.027534608363548436
000530 29 a3 80 69 ff 3d b5 3f c3 f3 ac 24 0f 8a cc 3f
       0.08297725988144279 0.2229632309989978
000540 d9 cc cd 49 c1 88 c4 3f 93 f1 fa c9 1d f9 b4 3f
       0.16042343238550563 0.08192621403845228
000550 04 ff cb 37 62 ae bb bf 11 5d 97 19 07 19 7d bf
       -0.10812963354328181 -0.007103946432344147
000560 a4 f3 0e 9c be 65 a9 bf 9f a8 ce 1c b2 57 bb 3f
       -0.04960437445649937 0.10680688098242051
000570 5d 09 e3 1f 01 7f ad bf e8 8f 5f 44 66 7e c4 bf
       -0.057609591619910396 -0.16010740603007823
000580 08 c3 e3 86 c6 95 f9 bf 07 a2 2e 70 26 9d a1 bf
       -1.5990662831429194 -0.034402085489379224
000590 04 0b ea f0 5d dd c7 bf 9f ab fe 7a ab 23 c1 bf
       -0.18644308341398397 -0.13390105729680798
0005a0 20 99 2c 0c 22 11 f5 3f b9 46 16 c1 8b 22 f5 3f
       1.3166828609042298 1.3209340612851703
0005b0 9e bf e0 28 48 2b 8f 3f 62 63 02 6e 1a 86 e2 3f
       0.015219272372718081 0.5788700245494562
0005c0 48 88 36 25 e4 f0 d0 3f fb 14 e3 5d 42 f7 c2 3f
       0.26470283159335795 0.14817075332954474
0005d0 e9 88 86 c4 8f 97 a4 3f c2 a1 02 7c 3b a2 eb bf
       0.040218823184902615 -0.8635537550044818
0005e0 88 61 88 eb 44 29 ed bf 71 e2 61 f2 02 9f b5 bf
       -0.9112877464531701 -0.08445757310426828
0005f0 2f 37 5c 25 b5 2e a5 3f 03 b5 d5 0e ec d6 b8 bf
       0.04137197571809136 -0.09702945100953646
000600 32 51 20 d2 87 bf ab bf 04 a6 1d 75 a4 de ee 3f
       -0.05419563713090482 0.964678028814149
000610 b0 49 65 d8 c5 5f a8 3f 44 17 27 cf 76 e8 e1 3f
       0.04760568872974902 0.5596269651366375
000620 13 4b 29 cc 7d 68 a5 bf f7 9f b5 82 40 3c bd bf
       -0.041812831089052115 -0.11420062247418615
000630 14 c8 22 f3 f5 28 c9 bf c8 8f a7 b3 71 0e 6c 3f
       -0.19656252261990004 0.003424856256275508
000640 19 77 1a f0 a1 02 c5 3f a4 0b c8 b1 70 b7 79 3f
       0.1641428396587166 0.006278457844476035
000650 04 88 34 e0 73 08 b3 3f 74 f2 e8 a6 49 96 c7 3f
       0.0743477270484903 0.18427391672038917
000660 31 be f0 d5 f6 15 d4 bf 43 b6 82 c0 ae e3 b0 bf
       -0.3138405884992351 -0.06597416114774383
000670 19 0d e9 5c a1 2c a6 3f ac 82 38 89 5d 47 d2 bf
       0.043309252349468426 -0.28560579681838294
000680 ba c3 4b 7c e0 c2 99 bf 4a f4 df 37 b8 e6 be 3f
       -0.02515745886461549 0.12070800174838428
000690 9f dd a4 ee 2f 39 f5 bf 3d db f6 19 31 b4 ba 3f
       -1.326461727336074 0.10431200870412467
0006a0 70 50 72 e3 03 9e a6 3f e0 5b db 3b f9 14 c2 3f
       0.0441743102211668 0.1412650625486256
0006b0 bb 4c 54 d7 d7 04 a7 3f da 16 d8 35 cc 1d bc 3f
       0.044958825145067625 0.10982967676690283
0006c0 e7 be 9e 0f 51 9d af 3f 84 bf f4 7e 79 72 d9 bf
       0.06174710574793867 -0.3976119746976041
0006d0 ab b5 66 23 f3 d1 81 3f 87 e7 3d 7f 6c f2 66 3f
       0.008701228635653665 0.002801143558767319
0006e0 a4 6f 8d 53 72 6b e8 bf be 0f 93 bb d1 7a e0 3f
       -0.7631160385021656 0.5149925864757205
0006f0 b4 cb 94 f8 16 6d 91 3f cb 9c a2 b0 d8 2f b2 bf
       0.017017706796831525 -0.07104257881529745
000700 b2 29 d4 25 95 a9 91 bf 52 1c df 9a f0 fa ec bf
       -0.017248468812832214 -0.9056323075136652
000710 25 6f 90 fb 7d f0 d0 bf 00 0f a1 f9 a2 57 b1 3f
       -0.26467847410980233 0.06774347872220332
000720 d4 c9 c0 77 db 3e b0 3f 3d 9d fd 7a 57 4c c6 bf
       0.06345912622126743 -0.17420476441768953
000730 a9 8d 51 4f a8 9f b0 bf 30 5a 3a 0c b3 e2 93 bf
       -0.06493617950905296 -0.019419477101644655
000740 2a 6e 4e b1 e9 57 d2 bf 6c ca 57 b7 41 10 b7 bf
       -0.28661577525210424 -0.09009180761476338
000750 3f 18 3a 8a ec a3 c4 3f 9c 29 a9 ca 37 ad e9 bf
       0.1612525629936403 -0.8023947675913408
000760 63 79 09 c9 3f d3 c1 bf aa 0d bd 5e 02 42 b0 bf
       -0.13925931278476886 -0.0635072213454381
000770 77 c4 be 72 cc c9 b0 bf eb a3 25 84 41 14 da 3f
       -0.06557920266529203 0.4074863234041561
000780 3e 4a 34 3b 78 1f bd 3f 14 6d 4f db c3 9f dc 3f
       0.11376143880287601 0.44725128571526906
000790 a4 10 0f 8c d8 70 94 bf b3 33 f2 18 46 94 a8 3f
       -0.019961722897065784 0.04800623945730056
0007a0 6f d8 93 02 56 44 c1 3f 97 96 8d 18 65 fc b4 bf
       0.13489794851165324 -0.08197624062958152
0007b0 fb 3b c3 96 04 88 c2 bf b7 b5 e9 c3 e3 10 94 bf
       -0.14477593766648042 -0.019595679123474343
0007c0 bf 16 3d 18 46 99 c3 bf 3c 42 b1 e8 8d 8c c0 3f
       -0.15311504539038442 0.12928937780317706
0007d0 e2 df 30 72 67 a5 f3 bf a0 11 26 3d 11 3d e1 3f
       -1.227881856973902 0.5387045091925309
0007e0 64 f0 32 0e 91 4c cb 3f 12 b2 6d c0 7b 23 c8 3f
       0.21327412789640043 0.18858286758349202
0007f0 28 f9 a4 4f e3 60 bf bf 29 54 93 0c ad 09 a0 bf
       -0.12257214254802717 -0.03132382181653554

linear_relu_stack.3.bias f8 [64]
000000 48 27 11 26 a7 96 02 c0 95 41 97 c7 52 4f f8 bf
       -2.3235609983429732 -1.5193660542027818
000010 0e f3 2c 7b da 0d e7 3f 76 b5 e9 03 de 05 f1 3f
       0.7204410939953918 1.0639324334000242
000020 11 b7 06 92 3e 25 03 40 d6 cd fc d3 61 5e fc 3f
       2.3931857498454367 1.7730425148737274
000030 dd eb 53 bc f1 37 14 c0 a7 3c 5c 44 bb 6f e2 3f
       -5.054633085844185 0.5761391005670661
000040 76 81 5a 1e 93 45 fb bf be d7 db 72 17 1d ba 3f
       -1.704486006325252 0.10200640253228152
000050 d7 a3 fb 09 01 08 f9 3f 82 7c 60 6e cd 83 fa 3f
       1.564454115863773 1.6571783362958574
000060 09 ec 4b 62 3e d2 05 40 5c 12 23 02 21 d0 fd 3f
       2.7276580504817542 1.8633127292133826
000070 15 a1 73 67 bd a4 ec 3f d4 92 a0 50 34 68 cf bf
       0.8951098461666641 -0.2453675645530412
000080 dd 12 b4 b4 6d f9 d7 bf db ac d4 63 46 3f ef 3f
       -0.37459890982453975 0.9764739942378599
000090 b1 1e 0a 57 c6 0a e0 bf 36 84 c7 aa c6 17 fa 3f
       -0.5013152790060841 1.6308046980923456
0000a0 bb ff 6c 29 d9 0a 0f 40 de e5 a9 a5 bb 79 dc 3f
       3.8802970157994117 0.44492999246685183
0000b0 dd 16 b0 41 aa a3 f4 bf 4e 52 1a ae 0e 70 e1 3f
       -1.2899572912150952 0.544928875011985
0000c0 12 de 2d 5b b3 e8 e0 3f 6c ca 28 8d d4 dc f2 bf
       0.5284058361857566 -1.1789136423145932
0000d0 02 62 13 0b 0c 02 b3 bf fb 39 c8 9f 51 a4 b6 3f
       -0.07424998541262798 0.08844480658465408
0000e0 cd fc 5c 75 52 ec 05 c0 08 a0 06 05 5a 15 f6 bf
       -2.740391652012113 -1.3802128025363363
0000f0 eb 5e f7 47 31 11 18 40 cf e5 5a bc 12 d4 c0 bf
       6.0167895550473345 -0.13147196003937586
000100 2d fc 14 76 a9 cf c3 3f 0d 10 7b 39 bb 6e ca bf
       0.1547748400280126 -0.20650425249743912
000110 c0 ff 71 21 6f ed e3 bf eb 6e a8 c5 5e 74 f6 3f
       -0.6227336552838025 1.4034106942189577
000120 d4 d9 01 0f e2 06 f4 bf 95 ff 1e 29 4a 62 12 c0
       -1.2516804300517963 -4.595986025349608
000130 e0 65 e5 68 68 4b f5 3f b7 87 52 10 12 eb 0a 40
       1.3309101197722768 3.3647805476366233
000140 1d ee cf 02 fb 46 c2 bf bc 1a 61 b8 b3 ce f9 3f
       -0.14279115330997252 1.612964363319107
000150 d5 80 69 32 d9 5b fc bf a9 53 54 ce b7 5b e6 3f
       -1.7724239320014494 0.6986960439559101
000160 2e 2d 9d 17 d5 0f ef bf ae ab f7 33 aa 70 f1 3f
       -0.9706826649866451 1.0900060682276762
000170 5c fb 0d 4a b2 90 ea bf 63 e2 a2 33 8b 40 e1 3f
       -0.8301631399516327 0.5391288765450323
000180 46 83 03 f2 64 e9 ed 3f cc 75 b3 4f 78 c5 bd 3f
       0.9347405173140053 0.11629440255952445
000190 ea b5 51 35 ea d5 0f c0 d8 b7 f7 3c 1e 62 e5 bf
       -3.9794506230889413 -0.6682273093008417
0001a0 52 a3 68 df fc 9a e2 bf d6 23 56 ab 21 bf f2 3f
       -0.5814194072200769 1.1716629689055842
0001b0 6d 3e 2c e3 f7 1c e0 bf 1a f0 89 02 e9 3b ee bf
       -0.5035361706704414 -0.9448132562242819
0001c0 62 26 44 59 2d 68 e7 3f c1 44 b5 65 2c 02 e7 3f
       0.7314669364433934 0.7190153109060234
0001d0 b0 cc d8 51 67 fb f2 3f a7 f5 17 7d 50 0d f6 3f
       1.1863778302329528 1.3782505880802576
0001e0 51 a4 03 9b b9 e8 fc bf 13 df 45 e0 bc 66 04 40
       -1.8068176322215275 2.5501649400065474
0001f0 2a 03 17 eb 84 3c 01 40 bf ab 98 27 36 1f d6 3f
       2.1545503965757193 0.34565500132401533

linear_relu_stack.6.weight f8 [64, 64]
000000 4c eb 7c d3 e7 de dd bf 8d 10 af 66 25 aa a4 bf
       -0.46673007634278885 -0.04036061171021386
000010 f9 5a b0 ef e4 63 dc bf 04 d6 fc 97 9b 40 b4 bf
       -0.44359706313245756 -0.07911083660732038
000020 65 ab 49 ff 20 ed d2 3f c5 8b 1a 24 7d 7c 9b bf
       0.2957231991810459 -0.02684207470759838
000030 42 e6 26 64 e2 1c eb bf f9 08 ab c9 04 75 e6 3f
       -0.8472759204952995 0.7017845095472516
000040 c1 94 c6 25 1e 98 c3 3f ae b2 20 74 c2 60 91 bf
       0.15307976574437102 -0.01697067102229493
000050 dd 8c 0f 98 e1 62 b4 3f 41 5f 82 86 3b 7f c8 bf
       0.07963380777760017 -0.19138282840571644
000060 ff 9a 4d 79 c5 b3 df 3f 87 93 a4 fc 44 b1 b4 bf
       0.49534737440119153 -0.08082991760291068
000070 eb d6 bc dd b0 08 92 bf 12 3d e2 c5 70 db ce bf
       -0.017611278089325316 -0.24107179319660382
000080 df 2e bd e2 36 43 e9 bf a4 ab 0f d9 c6 1d 75 bf
       -0.7894548824783348 -0.005155350446311244
000090 ea 8c de 4a 5c 8b b2 bf 50 92 0b 36 52 80 03 c0
       -0.07243897273888292 -2.437656805256019
0000a0 62 f2 1b bb 6e 54 d4 bf da fc b5 48 ed 04 e0 bf
       -0.3176533534276925 -0.5006014270910797
0000b0 b5 f6 94 29 5f 5b 9f 3f d8 c3 0e 94 aa 65 cc 3f
       0.030621992981869812 0.22185260991457656
0000c0 bb 09 06 b7 80 dc a8 bf 24 7f c3 29 ad ce c7 3f
       -0.04855730280089029 0.1859947637485614
0000d0 6f 6e bd c2 80 13 d1 3f a4 32 3c 31 26 09 e1 bf
       0.2668153669126018 -0.5323668443321208
0000e0 e2 cc ff 2d bd b6 c8 3f 0f 44 2f 12 ff 76 d1 bf
       0.1930767511945311 -0.2728879621109294
0000f0 55 aa 84 53 eb 9a d9 bf 9a 54 91 f2 2a d9 c9 bf
       -0.4000805202109963 -0.20193993419767226
000100 f3 68 e0 fc 74 c9 da 3f 36 77 ea 55 3e e6 c0 bf
       0.41854595847111326 -0.13202647395240213
000110 e8 6e f0 b2 7f 24 cf bf e8 49 a2 72 5f 3b bb 3f
       -0.24330135571732758 0.10637470768623525
000120 99 5c 7c c7 5d 10 dd bf 5f c3 16 12 8e 5f a5 3f
       -0.45412392121347406 0.041744651516075086
000130 58 f4 f0 22 95 64 da bf 5a ac 0e 81 41 c6 b9 3f
       -0.4123890725348409 0.10068139458478367
000140 7e 06 2a 15 42 6f df bf 6d c2 f1 58 3b 44 cc 3f
       -0.49116565768063214 0.2208322700785347
000150 23 3e f8 24 56 c1 c8 3f 4c 57 82 00 9c 2e cd 3f
       0.1934001617923836 0.22798490548000883
000160 90 cd 53 cf c9 23 d2 bf fc c0 71 d8 a8 e5 e7 bf
       -0.2834343456917958 -0.7467846133640985
000170 59 15 48 c4 11 d3 75 bf 02 ab 7b ea 37 7e cc 3f
       -0.005328244591969644 0.2226018805443673
000180 50 74 a6 a2 cf 69 c4 bf e6 32 c8 51 8d a3 e5 bf
       -0.15947909776596925 -0.6762148473077019
000190 0a 9f 3f 2b 0e b1 c4 bf b8 7d f5 dd 2d 60 c0 3f
       -0.16165330039734044 0.12793515527571997
0001a0 99 a6 11 84 b5 19 d1 3f 36 79 c1 f3 40 9f c5 bf
       0.26719415566786037 -0.16892253782402528
0001b0 74 37 3d 28 ed f9 ad 3f 16 81 4b 1f ed 03 bb 3f
       0.0585474120731381 0.10552865995441993
0001c0 d6 11 06 6e bf bd bd bf ba 37 9e 18 84 e4 d1 bf
       -0.11617657123685574 -0.27957250980477577
0001d0 f9 07 55 6c 10 21 cb 3f 1a c0 c8 ea a5 4e bf bf
       0.2119465378728476 -0.12229382497821498
0001e0 30 12 d8 28 db 12 f1 bf cd 03 59 f8 00 83 c7 bf
       -1.0671035380811524 -0.18368541838029132
0001f0 40 71 49 6d 33 77 cf 3f a7 c7 18 1f cf 19 c9 bf
       0.24582522236131332 -0.19610013025663628
000200 aa 48 d8 74 2b 8d d4 bf e6 40 c1 12 0a 28 c6 3f
       -0.32111631785040606 0.17309690395132477
000210 ea 94 e9 3f a9 83 a9 bf 98 cb 7f a8 4f 8d b6 3f
       -0.0498326197164632 0.08809373725652703
000220 f6 83 17 c1 5a ac c3 bf 2b 17 b9 9d 20 d3 a9 bf
       -0.15369734218896242 -0.0504388992817851
000230 09 ab 0c 5b 38 5c 56 3f d5 b1 b7 d7 04 c0 d6 bf
       0.0013647604320776183 -0.3554699045769472
000240 f4 8e 74 87 1f 33 bf 3f a7 92 bc ec 04 cd 96 bf
       0.12187382752432169 -0.02226646132398238
000250 10 64 94 0d 1b df b3 3f 1d a9 e7 fc 36 f1 99 3f
       0.07762307244810551 0.025334223924724165
000260 ca 81 fa 42 88 c3 e3 3f f3 fe 94 49 e6 30 89 bf
       0.6176186855482737 -0.012300299759430788
000270 01 f8 33 cb 61 fc c0 3f d4 a4 07 b6 73 1a d2 3f
       0.13270208761235838 0.28286450172761346
000280 3a 06 30 f3 02 22 c9 bf 85 6c 5b 23 62 2a 5f bf
       -0.19635044931787765 -0.001902194822313048
000290 3c 0e 3c 16 97 e7 ad bf a4 f7 b3 69 2f c7 db 3f
       -0.0584075178758465 0.4340323002105555
0002a0 49 fd 84 33 0e 2b c2 3f 20 57 01 8f 5e f9 d5 bf
       0.14193894878006066 -0.3433452984366898
0002b0 d6 55 5f 69 04 ce a3 bf e8 8c de db b9 df cd 3f
       -0.038681161749689316 0.23339007602508066
0002c0 8e 21 aa 46 ea 0b d4 3f bb f9 5a 28 0d 84 d3 bf
       0.3132272424777732 -0.3049347776503983
0002d0 ed 1e f4 68 46 a6 98 bf 2d c8 55 fd 7a dc af bf
       -0.0240717889364807 -0.06222900717229183
0002e0 64 ac 11 4c dd 6a 91 3f 55 81 e8 bf a5 67 da bf
       0.017009217994580786 -0.4125761388877625
0002f0 9e 05 b2 9a 84 99 c3 3f 70 ac 75 ab 1d 79 9a 3f
       0.15312249711500397 0.025852645483081138
000300 7a 95 80 05 6c 3e b0 bf 02 1e 07 33 58 40 cd bf
       -0.06345248350461033 -0.22852613917915227
000310 04 92 56 4b b7 92 bc bf 96 bb 28 cb a9 6f c5 3f
       -0.11161370839415247 0.16747019214514286
000320 cb eb 30 2c 44 e5 b1 bf 86 a9 d0 98 43 ad c2 bf
       -0.069904576100199 -0.1459125991980949
000330 02 c8 67 37 4e 12 ca 3f 1f db 97 04 91 b0 c0 bf
       0.2036836405309828 -0.13038838123585436
000340 23 0c 49 7a 8f 14 d6 bf 5a 99 f6 e1 b8 57 e5 3f
       -0.34500491086891055 0.666958276114012
000350 61 f2 0a 74 49 d9 e1 bf 3c 80 0f 41 b0 55 bb 3f
       -0.5577742830715345 0.1067762526358828
000360 5f 06 26 8b c1 26 f4 bf f1 41 81 4e 28 48 da bf
       -1.2594619212617528 -0.41065414110656123
000370 c0 83 72 69 21 28 c1 bf 1e 98 9e e0 b3 b2 d3 3f
       -0.13403718613429128 0.30778214393137826
000380 fb a8 bf a2 f5 3b b1 3f 97 16 f9 da bf 3f bd bf
       0.06732115958553557 -0.11425398918171435
000390 c3 42 3b cd be 3e a6 bf 09 5c 1d eb d6 e7 c6 3f
       -0.04344745879428082 0.17895018081864603
0003a0 ac b5 26 43 c1 8b ac 3f a4 d9 b4 2b dd 2a ae bf
       0.05575374550549425 -0.05892077597166015
0003b0 df 28 a6 e7 13 78 b9 bf 43 7c a6 e3 12 b7 9b 3f
       -0.09948849111075074 0.02706555857150429
0003c0 88 de ad c1 2e e7 b1 3f 9b 82 c9 7d b1 2e ad bf
       0.06993381718154457 -0.05699686680305157
0003d0 5e 54 c2 fd db c0 c5 bf 88 5d 81 2d cf 2c c9 3f
       -0.16994810000020072 0.19667997095050915
0003e0 db 88 98 5e 41 3a d0 3f 98 39 28 09 f2 ad ad 3f
       0.2535556243693812 0.05796772348195417
0003f0 7d e9 eb a0 d8 90 b0 bf 46 e3 f1 34 75 7c a3 bf
       -0.06471017769573524 -0.038058912957188926
000400 c1 af 68 08 1f aa ab bf 76 b8 df 04 a6 8e 9f 3f
       -0.05403229692123502 0.030817598388175736
000410 9b 53 67 77 7f 22 ad 3f 9b a7 6a 7e 64 ec d0 3f
       0.056903823209416525 0.26442825646756213
000420 8c 5c 9e ab 38 b3 c0 3f a9 51 e3 59 6b d4 d1 3f
       0.13046940212072788 0.27859004762765466
000430 b3 cc 50 32 be bf db bf 85 a8 20 65 b6 cd b0 3f
       -0.4335780612338553 0.06563892334875916
000440 f5 6e 7e ae e2 3b a9 bf 1a d1 77 2d dc 4b a2 bf
       -0.04928501491596463 -0.0357350163939449
000450 55 af db 19 9a 28 c3 bf a0 a3 4c 96 98 e0 a8 bf
       -0.1496765733967275 -0.04858853182515266
000460 aa 89 22 eb 1c 08 bd 3f a4 40 a3 e0 07 0e a8 3f
       0.11340504398916687 0.046982046290964946
000470 ca 8a 17 63 ac 1b bf 3f a0 9c 79 d1 c5 03 b1 3f
       0.12151601237523404 0.06646381725441808
000480 3a 6b a2 be 1f 5e a2 3f 71 5d 9a a1 ed 52 5c bf
       0.03587435915070221 -0.0017287560098447586
000490 dc 4c b7 b5 c9 6d d3 bf 9a 35 18 47 98 25 d0 3f
       -0.3035759234018778 0.25229460661724945
0004a0 52 10 37 0a 5a 2d c2 3f 95 2e 32 7b 17 6c ad bf
       0.14200902460845782 -0.057465299404694616
0004b0 81 7d 23 03 9a ef 84 3f 5a ed a7 67 63 2d d0 3f
       0.01022262880400038 0.25277028200772167
0004c0 ca 6c c5 50 a9 9d 89 3f 88 03 07 fb af 33 dd bf
       0.012507746484223498 -0.45627975000757504
0004d0 7d 28 3f 30 37 b4 ac 3f e6 87 cc 0f 2d 1a a4 bf
       0.056062435760012776 -0.03926220720155964
0004e0 f1 60 6a 29 22 7b d8 bf d7 05 45 f3 de 9f a5 bf
       -0.3825154690216684 -0.04223534316634996
0004f0 c1 24 ec 1d ca 79 eb 3f 33 65 1a 53 14 1d a7 bf
       0.858616884653337 -0.04514373316232891
000500 07 20 4f c8 cc 41 d3 bf 17 9e c6 a1 fe 53 a9 3f
       -0.3008911090987571 0.04946895336916784
000510 a7 d7 8a 1d 8c 97 89 bf 79 0d 91 0e da 32 b6 bf
       -0.012496084834633893 -0.08671343665723964
000520 3d 7f 29 3b bb 26 cd bf aa ce 23 85 76 7b a7 3f
       -0.2277444876553946 0.04586382270090657
000530 33 a4 a1 25 9f 74 d8 3f ea e8 0f 96 54 7c aa bf
       0.3821180217260604 -0.05172981578648879
000540 3d 9d 91 cd d5 03 a0 3f f8 3c 2b 25 9f 01 a6 bf
       0.03127926000962098 -0.04298112229082024
000550 fd aa df 04 8b b0 ce 3f 33 11 53 f9 5e 22 d9 3f
       0.2397626661107423 0.3927228388604533
000560 36 a2 36 d9 8c 6b c3 bf 39 89 b3 13 fd df b1 bf
       -0.15171967130778946 -0.06982404452313497
000570 73 eb ea 86 b0 8c db bf b6 27 39 3b 6c 7a 9b 3f
       -0.43046200919677985 0.02683419333906275
000580 fd bb 67 ad b1 9f ce 3f d1 47 d8 fa 44 9e d0 3f
       0.23924847571421984 0.25966000076834655
000590 3b 79 ef 84 7a 8a c2 3f 55 ec 13 e9 1d a5 bb 3f
       0.14485103121746498 0.10798823299767098
0005a0 26 58 ae c3 ca 98 cd bf b3 34 b9 ac 40 02 ba bf
       -0.23122534327257077 -0.10159687249070508
0005b0 c3 85 59 29 b4 bc 9d 3f 86 fa 03 02 88 c5 d7 bf
       0.02904016020182155 -0.37143135258512705
0005c0 28 b2 f4 df 67 e4 bd 3f b3 0a 1d ad 6c 12 c0 3f
       0.11676644532844505 0.1255622716217509
0005d0 16 da 2f 2c 85 1f cf bf 67 ce b9 ca e3 38 a5 bf
       -0.243149420333524 -0.04144965982132192
0005e0 ea b6 42 cf 1f 09 c3 3f 0e 3c a1 79 00 2c c7 3f
       0.14871595020434053 0.18103033007579977
0005f0 98 d0 0d 05 df 46 da bf 00 a5 cf d9 80 a0 c9 3f
       -0.41057563298751054 0.20021067271526505
000600 d4 e3 6f 31 26 17 bd 3f ea 06 b5 27 8f 34 c2 bf
       0.11363447863540382 -0.14222897948098218
000610 4e 3c 13 c2 69 25 c8 3f 09 10 08 f9 65 38 6e bf
       0.18864175773930686 -0.003689002194962047
000620 67 95 d4 25 32 8a a7 3f 99 b4 d1 05 87 9f be bf
       0.04597622596547062 -0.1196216954428614
000630 f2 4c f1 71 37 52 a2 bf 97 31 ce 23 d7 eb d1 3f
       -0.035783512743955984 0.2800195550596753
000640 00 5e e2 e2 60 64 c8 bf e8 a9 9b 5e a5 42 ba 3f
       -0.19056330755550732 0.10257943687216875
000650 29 83 0a 14 7c 03 b6 3f 22 4a 83 5f b9 34 d3 bf
       0.08599067200931344 -0.3000930245154071
000660 46 7a a8 be 3a 16 d3 bf 17 5f 9a b0 26 32 b3 bf
       -0.2982317792792951 -0.07498399554821976
000670 c3 99 5f 99 3d b6 c2 bf 71 ec 36 55 d9 bc c4 3f
       -0.1461865424054861 0.16201321278444739
000680 3b 86 9b b2 7b d7 dc bf 90 76 a3 88 f0 49 a8 3f
       -0.450652050420192 0.04743911426497249
000690 fc a6 12 74 9f 69 c4 3f 5a 12 25 6b 9d 0a 90 bf
       0.1594733540308012 -0.015665492691612527
0006a0 24 ee e7 4b c9 6d c1 bf b3 09 2d a5 60 03 d5 3f
       -0.1361629124292999 0.32833114748441544
0006b0 5c 41 a6 61 db 1b a0 3f fe f9 34 38 e2 43 b6 bf
       0.031462531728837034 -0.08697332260360466
0006c0 98 9b 5e 7c db 2e ce bf 7f 18 2e c1 1a 55 a9 3f
       -0.2358049733422518 0.049477420884657335
0006d0 9f 68 2b 00 cf 66 a2 bf 47 3d b8 c0 9e 21 b4 bf
       -0.03594061734266173 -0.07863800244398532
0006e0 2e 86 51 be 8b 83 cf bf d4 00 b0 c9 f7 6c 9c bf
       -0.2462019614495587 -0.027759429631260726
0006f0 8a 75 30 a4 9f 2f c1 3f 3f 66 56 6c 6a d3 cf bf
       0.13426585690551135 -0.248639395617646
000700 e0 18 ad e9 38 d8 c7 bf 06 c0 6d 0c ee 0c b5 bf
       -0.1862860814091567 -0.0822285442679914
000710 c4 7f e6 9d a4 95 67 3f 65 40 eb 1f 5c 61 c6 bf
       0.002878972546753263 -0.17484618719618364
000720 8d cd 41 b2 15 5e cd 3f dc ee 10 01 00 b7 ea 3f
       0.22943373874623454 0.8348388691733493
000730 00 91 8b d5 4c 65 ba 3f 50 3c 92 90 67 b2 c7 3f
       0.10310821736817743 0.1851319747843001
000740 3f 33 47 91 b9 cc bc 3f 07 02 72 4a 88 ce df bf
       0.11249885365323296 -0.49698073644688673
000750 97 07 66 df d2 d7 b1 bf db 16 13 e4 c3 f6 c2 3f
       -0.06969945863786929 0.1481556762357091
000760 5f 3f 16 73 a8 21 ed bf da a1 57 18 ce b7 89 3f
       -0.9103586433211425 0.012557611577862216
000770 2a e4 b7 ae f9 94 ac bf d6 96 6e 6d 13 39 d8 bf
       -0.0558240915087896 -0.37848363577573474
000780 c5 f1 51 e5 d1 7f cd bf b2 ba d9 34 ab 85 a7 3f
       -0.23046325394888192 0.045941686822393094
000790 a8 9e 47 f6 e1 d4 b6 bf 20 1d c3 88 33 e9 d2 bf
       -0.08918583166780059 -0.2954834781234741
0007a0 0b 29 cb f1 21 36 b4 3f ec 01 54 73 b3 ae b7 3f
       0.07895099785961095 0.0925094753802182
0007b0 cc e9 eb 23 ac 0b aa 3f 64 1f 8e e2 64 63 6d bf
       0.05087030352111163 -0.003587433854082821
0007c0 20 6a 43 f7 0b d5 d1 3f 12 ee 47 4f 2b 85 9e 3f
       0.27862834116754875 0.029804875101019652
0007d0 c9 64 89 11 97 86 b7 bf 14 50 c3 18 b3 3f ce bf
       -0.09189743211881586 -0.2363189574158474
0007e0 9d ab ae 2d b9 85 d3 3f 22 33 41 21 f2 42 9c bf
       0.30503682576334673 -0.027599128036217675
0007f0 bd cf f2 85 18 6c aa 3f 5e 57 eb 76 f6 f8 ba 3f
       0.051605955458767984 0.10536137011817234

linear_relu_stack.6.bias f8 [64]
000000 a7 fe 3b a5 45 0f ee 3f 21 4a 66 81 39 7f 02 c0
       0.9393642642243848 -2.3121214017239855
000010 3e 94 01 f7 89 c5 00 40 8f 71 83 48 7b bb bf bf
       2.0964545533520598 -0.12395449180934846
000020 3e 87 26 63 fb 4d c1 3f 95 f7 69 ce cd 73 0b c0
       0.13519232121785224 -3.4315448881233785
000030 64 fa 34 e1 d1 07 e0 bf bc 39 b7 c3 af 02 e2 3f
       -0.5009545706341894 0.5628279516766308
000040 ad ec 90 db fe af 02 40 34 64 ce 41 d4 58 df bf
       2.3359353211977436 -0.4897966997755845
000050 a7 c0 ca bf 27 a6 e9 3f 10 f6 58 4f 86 4a f9 3f
       0.8015326257646124 1.5806944942008876
000060 a0 a7 bf a8 fb 64 c7 bf 2e 3a 43 98 3f 9a 00 40
       -0.18276925792389154 2.075316609908689
000070 89 05 f3 89 f3 c6 cc bf 20 13 45 01 ea 07 0b 40
       -0.22482151256376096 3.3788642977909973
000080 3f 01 90 ea 62 78 cc bf c0 c8 ad 53 b2 fb e9 3f
       -0.22242390111206053 0.8119746813156539
000090 73 c4 f8 59 af 1d e5 3f fa af 30 9f 83 06 f5 3f
       0.6598736531506247 1.3140903681151017
0000a0 91 eb d0 b9 03 41 0d 40 67 0f 05 5e f0 ae fd 3f
       3.6567453877336864 1.8552097008368607
0000b0 5e 8d 2a 31 95 54 e4 bf 77 db bd ca 57 6f f1 bf
       -0.6353250465657927 -1.0896833343119547
0000c0 56 6b b7 e8 e9 33 e8 3f 1a 03 28 30 c0 8d df 3f
       0.7563371224635869 0.4930267782474843
0000d0 87 ee 44 1c a6 5a e4 3f b4 8b 39 0d 52 15 fe 3f
       0.6360655357488704 1.8802052036851196
0000e0 1f 1d 38 c8 5f d1 07 40 60 03 ad 8d 67 9e 00 40
       2.9772334711193618 2.07734594997639
0000f0 5f d4 f2 d6 01 9d 0c 40 ca be 73 f4 5b 1c d9 3f
       3.5766636650901513 0.3923559081294853
000100 93 d7 79 e2 42 62 e3 bf a3 39 26 7c 21 c5 d8 bf
       -0.605744783721763 -0.38703190921742187
000110 21 6a 6c 02 fb 1d f0 3f 05 67 bd 5a 79 92 fa 3f
       1.0073194594066381 1.66076026387458
000120 03 fc d9 61 ad 91 f8 bf 8c c6 a8 08 03 01 ed 3f
       -1.535565740806988 0.9063735169531397
000130 8b 97 a6 b1 78 ec 05 c0 55 6d d8 f1 ad cb 0b 40
       -2.7404645804371675 3.4744528669522574
000140 37 cf e6 ba a7 af d1 3f 82 81 6c fd aa 80 d8 bf
       0.27634614231213867 -0.38285326717780077
000150 15 fd 9b 7a ac 2d f6 bf e9 65 02 f0 96 6c c9 bf
       -1.3861508168627712 -0.19862639159400367
000160 9f 8d d4 61 c3 2c e2 bf 04 14 ba 59 5a 54 0b 40
       -0.5679642592189572 3.4161879548942142
000170 84 c0 d6 41 e2 f8 e9 3f 37 42 b7 7f 87 68 e3 3f
       0.8116313253322152 0.6065099234056736
000180 9d 8f cc 54 a5 22 11 40 93 de b5 2b 67 02 d7 bf
       4.283833813653385 -0.3595216681346553
000190 e4 22 8c dc 33 a7 d1 3f 80 56 d0 3d 64 10 bd 3f
       0.27583023584206345 0.11353136548162901
0001a0 08 d9 7f 3b de b4 ed bf f5 29 84 a4 16 71 fc 3f
       -0.9283286249253999 1.7776094843308077
0001b0 c4 26 3b d4 ba af d9 bf 7f 34 d3 66 91 76 d2 bf
       -0.40135069585504035 -0.2884868148947319
0001c0 00 f6 4e 09 98 65 ea 3f cd b0 21 c6 c4 a0 f8 3f
       0.8249015981488697 1.5392501582637579
0001d0 91 6f 48 39 08 bd f1 3f db f5 d4 f2 02 17 b2 bf
       1.108650420915158 -0.07066362789642915
0001e0 76 f9 64 97 33 80 ee bf 26 47 e4 de cb 6c f4 3f
       -0.9531496006891718 1.2765616137225577
0001f0 57 22 b4 c3 ef 92 e8 3f fe 3b 90 15 d6 4e f1 3f
       0.767936594232263 1.0817471353836932
