pretrained_model/pretrained_parameters.pth (torch, 105487 bytes, 10 tensors)

linear_relu_stack.0.weight f4 [64, 180]
000000 4c 27 59 3e 1d 70 81 3e a9 b0 c2 be 10 cd 06 3e
       0.21206397 0.25280848 -0.38025406 0.13164163
000010 62 10 54 3e 9c 11 fa 3c 6c a3 af bb eb 5e 07 bd
       0.20709375 0.030525975 -0.0053600576 -0.033049505
000020 11 6b 97 3c cf d7 7f bb b3 1c 4e bc bb b8 5b bc
       0.01848367 -0.0039038544 -0.012580085 -0.013410742
000030 98 49 6b bc 81 a3 8e bb e2 91 f3 3c a6 95 93 bb
       -0.014360808 -0.0043529873 0.029732648 -0.0045039235
000040 f0 ca e3 3b 3e 89 bf 3c 3d 55 6d bc ad 99 6a 3c
       0.0069516823 0.023380872 -0.014485654 0.014318866
000050 ad 3c 0f 3c 11 4c 8a ba 52 30 cb 3b 83 e3 9a 3c
       0.008742494 -0.0010551234 0.0062008286 0.018907314
000060 d7 45 dc ba 9f 72 55 3b 31 68 86 3b 82 84 4b bb
       -0.0016805482 0.003256954 0.004101776 -0.0031054323
000070 eb cd 30 3b 37 91 19 3c 81 34 b9 bb b0 6f 29 3a
       0.0026978205 0.009373001 -0.005652011 0.0006463481
000080 47 4e eb 3b 6d e9 0f bb d7 3f 54 bb cd 2c 6f 3b
       0.0071809622 -0.00219592 -0.0032386684 0.003649521
000090 7c 9d ea bb 47 c2 6c 3b 95 f3 68 3b c7 1c 3a bb
       -0.007159887 0.003612654 0.0035545577 -0.00283985
0000a0 42 69 22 bb 82 4b 06 ba f9 4e f8 3b f8 cc ed 3b
       -0.0024781977 -0.0005122946 0.0075777736 0.0072571
0000b0 89 cf 82 3b 92 c9 31 bb 85 5b 13 bb c8 17 d5 3a
       0.0039920253 -0.0027128202 -0.002248497 0.0016257698
0000c0 fe 59 b7 3e 12 b3 07 3e 3f 09 13 3f 45 34 59 3e
       0.35810846 0.13251904 0.57435983 0.21211345
0000d0 3b c6 5a 3e 04 5b 50 be dd cf e0 bc 59 c1 0b 3e
       0.21364681 -0.2034722 -0.027442867 0.13647975
0000e0 e3 41 3e 3d 00 d1 09 be f8 f8 47 3e cd b1 7f 3e
       0.046449553 -0.13458633 0.19528568 0.2497017
0000f0 53 79 e2 3d 89 f5 b0 3b 7b d9 f8 3d 76 7c f4 3d
       0.11058297 0.005400364 0.12150856 0.119378015
000100 82 1d 28 bc b0 23 66 3d b9 ca 57 3c 7d 0c e2 3d
       -0.010260941 0.056186378 0.013170891 0.11037538
000110 fd b2 d2 3c be e4 e7 3d 89 c9 b7 bb 6a 8a b2 3d
       0.025720114 0.11322926 -0.0056087417 0.08717807
000120 d9 eb 0d 3e 91 75 c6 3d d1 a4 3e 3d 95 a9 08 3e
       0.138595 0.09690393 0.0465439 0.1334594
000130 cb 51 da 3d 53 26 87 3d 72 7e e6 bb 39 8b 04 3d
       0.10660132 0.06599107 -0.0070341164 0.032359336
000140 76 ff 14 3e e2 41 1a 3d c1 33 a0 3c 4c dc a3 bb
       0.14550576 0.037660487 0.019555928 -0.0050006267
000150 57 93 dc 3d 38 69 b5 3c 59 9d 22 3d 5a a3 de bc
       0.1077029 0.022144899 0.03970084 -0.027177501
000160 c2 72 06 3e f4 ca 91 3d b3 5a d4 3c b5 c5 7f bd
       0.13129714 0.07118788 0.025922155 -0.062444407
000170 51 37 3d 3c 67 da 69 3c 6b 3a e9 3c b1 28 cb bd
       0.011548833 0.014273263 0.028470239 -0.09919871
000180 7b a2 92 3d 98 59 87 bc 4d 33 ca bc 6d a7 4c 3b
       0.07159897 -0.016522214 -0.024682665 0.0031227723
000190 bf 41 05 3e 37 43 36 ba 87 d3 6e 3d 1b dd 27 bd
       0.13013361 -0.0006952765 0.058307197 -0.040982347
0001a0 68 be 6d 3d 9d 0d 79 3d 0e 1d aa 3d 6d ee 11 bc
       0.058042914 0.060804 0.08306323 -0.008906943
0001b0 2c c1 5f 3c bd 4e db bb 8a 85 11 3d 15 ea 4a bd
       0.013656896 -0.006692736 0.035527743 -0.049539644
0001c0 8f 76 10 40 dc 00 f6 3f 15 3e 8b bf 65 cd d6 3f
       2.2572362 1.9219012 -1.0878321 1.6781431
0001d0 0d 92 ae bd 92 d4 87 3e 21 1e 2c 3e 0c 9c c7 3d
       -0.08523951 0.26529366 0.16808368 0.097465605
0001e0 87 4f 8a bd f9 9e 29 3e 98 24 41 bd 95 25 35 3e
       -0.0675345 0.1656455 -0.04715404 0.17690118
0001f0 fa 5c 9f bd 26 20 19 bb 7c a0 6d bd 62 ee 5f 3c
       -0.07781406 -0.002336511 -0.058014378 0.013667675
000200 4c a5 fd bd 22 21 2b 3d ca c4 3c bc 3d 8e 4e bd
       -0.123850435 0.041779645 -0.011521528 -0.050428618
000210 24 bb fb bd 17 8d 9c 3d 30 e6 8f bc c0 70 b0 bc
       -0.122915536 0.07644098 -0.017565817 -0.021538138
000220 19 dd 35 be 2a 22 8e 3d 09 07 31 3c d6 4a 02 3d
       -0.17760123 0.0694011 0.0108049 0.03180965
000230 03 e2 0a be 4a 36 18 bd 29 2b 92 bd 7a b2 08 39
       -0.13562779 -0.03716115 -0.071371384 0.00013036458
000240 6e b8 03 be a8 e7 f1 bc 51 a3 cc bd be e1 e7 3c
       -0.12863323 -0.029529408 -0.09992088 0.028305884
000250 29 7a 80 bd 8a f1 78 3d 6b 44 26 bc 4c b0 26 3d
       -0.062733 0.060777225 -0.010148148 0.040695474
000260 51 65 06 bd 93 7e 8e bc 63 0d 56 bb 04 9a 3a 3b
       -0.032811467 -0.01739434 -0.0032661788 0.0028473148
000270 67 ac c6 bd 23 0b ca 3c d4 42 16 bc e2 9d d1 3c
       -0.09700852 0.024663514 -0.0091712065 0.02558798
000280 b6 86 e6 bd 16 84 a1 3c da 77 07 3a bc 66 e6 3b
       -0.11256163 0.019716304 0.00051677006 0.00703129
000290 f4 cf 04 be f5 6f 15 3b 8d 12 c4 3c 27 16 bd 3b
       -0.12969953 0.0022802327 0.023934627 0.005770463
0002a0 18 a8 80 bd 46 19 17 bd a2 06 2f 3d 16 88 36 3b
       -0.06282061 -0.036889337 0.042730935 0.002785211
0002b0 b4 ac 9f bd d3 b9 7f bd 7c 8f 2f 3b c9 15 ae bb
       -0.077966124 -0.062433075 0.0026788404 -0.0053126556
0002c0 c8 27 fb bc 84 ed d0 bc 8f de 4a bc 1a d0 8c 3b
       -0.030658618 -0.025503881 -0.012382164 0.0042972686
0002d0 58 53 89 be 25 d0 c4 3e 89 f9 1a 3e 5f 02 91 be
       -0.268214 0.38440052 0.15134253 -0.28322122
0002e0 9a b9 87 3f 45 c3 bb 3f 6f 59 06 be 72 4a fc 3c
       1.0603516 1.4668967 -0.13120054 0.030797217
0002f0 a2 07 23 bc 6a 49 73 bc a2 af 96 3b 52 ae 5f bd
       -0.00995055 -0.014849046 0.004598574 -0.054609604
000300 d9 af 01 bd 31 d6 01 bd 84 15 a6 bb 4d 37 15 bd
       -0.031661842 -0.03169841 -0.005068483 -0.036429692
000310 b5 51 31 bd 66 d9 69 3b 31 aa 65 bc 53 5d 8a bc
       -0.043290813 0.0035682558 -0.014017628 -0.016890204
000320 f7 20 6f bc c1 fd bc bb fc cc 35 bc 95 08 bf bb
       -0.014595262 -0.0057675545 -0.011096235 -0.0058298805
000330 98 e1 63 b7 f5 4a 83 3a 62 78 4a bb 08 d4 83 3b
       -1.35827795e-05 0.0010016846 -0.0030894508 0.004023079
000340 8d 1f 31 3a 5d 45 60 3c 6f 26 a9 b9 84 1b f8 3b
       0.00067567156 0.0136884125 -0.00032262827 0.0075716395
000350 1d 58 ec 3b f2 1f 02 bc 91 67 07 3c 32 34 83 ba
       0.0072126524 -0.007942187 0.008264438 -0.0010010062
000360 54 8b 89 b7 5f f0 81 3c 89 1f 15 3c c8 e8 48 ba
       -1.6396552e-05 0.015861688 0.009101757 -0.00076640816
000370 b2 cf a1 3c ee 64 3b 3a f8 5d 0d bc 9e e8 ac 3c
       0.019752357 0.00071485236 -0.008628361 0.021107014
000380 0c e5 0c ba 0b 26 e7 b7 49 99 98 3c 93 9d 68 3b
       -0.0005374707 -2.7555061e-05 0.01862778 0.0035494312
000390 eb 42 6a 3e 86 37 69 3e 45 50 b2 3e 45 8d 95 3e
       0.2287709 0.22775087 0.34826866 0.29209343
0003a0 3c 52 2b 3e de 63 86 bf dc 25 b0 be 94 b2 63 3d
       0.16730589 -1.0499227 -0.34403884 0.055590227
0003b0 45 32 98 3d 37 48 b7 bd e0 1f dd 3d a8 db 81 3e
       0.07431463 -0.08949321 0.10797095 0.25362897
0003c0 a7 5e 0e 3e 84 3e ba bd 91 f6 bb 3b 2d b3 77 bd
       0.13903295 -0.09093955 0.00573618 -0.06047361
0003d0 97 8b 91 3d d3 6b 98 3d 2f 1a f0 3d b4 eb 18 bd
       0.07106703 0.07442441 0.11723744 -0.03733416
0003e0 21 55 19 bd b0 43 e0 b7 7c 60 b8 ba d6 a5 fb bd
       -0.0374347 -2.67344e-05 -0.001406684 -0.1228749
0003f0 c4 a4 5c 3b 8a ef 01 3e 21 a2 4c bb 5a e9 45 bd
       0.0033667544 0.12689033 -0.0031224566 -0.048318245

linear_relu_stack.0.bias f4 [64]
000000 e8 a6 30 3f e6 60 e5 be bb 00 e1 be 41 d8 fa bc
       0.6900468 -0.4480049 -0.4394587 -0.030620696
000010 bb 1d 42 bc fb c5 84 bf 26 a9 85 be af 09 0b bd
       -0.011847909 -1.0372919 -0.26105613 -0.033944782
000020 a0 19 52 bd 68 3c 27 3e 97 26 16 3f 8b f6 47 bf
       -0.05129397 0.16331637 0.58652633 -0.7811057
000030 2a ad 77 3f f9 00 8e 3e 33 e1 6e be e6 0e 07 3f
       0.967486 0.27735117 -0.23328094 0.5275711
000040 5b 79 a8 3e b1 5c 3a bc c4 62 60 3e 19 64 f0 3b
       0.32905087 -0.011374638 0.21912676 0.0073361513
000050 50 61 28 be ce 1c b2 be 44 93 9e bc 03 52 aa be
       -0.16443372 -0.347876 -0.019357331 -0.33265695
000060 80 82 d0 be 3d 6a ca 3d 69 5a 13 be 9b 5e 2e 3f
       -0.40724564 0.098835446 -0.14389957 0.68113106
000070 bf 0f 0e be 25 8a 85 3e 67 97 cd be 4d e6 24 be
       -0.13873194 0.26081958 -0.40154573 -0.16103478
000080 87 e5 bf bd 63 92 1c bf dc 32 bb bd 38 db b6 be
       -0.09369951 -0.6116087 -0.0914056 -0.35714126
000090 fc 99 84 3e 20 41 84 bd d1 81 da be 81 69 c6 be
       0.2589873 -0.06457734 -0.42677167 -0.38752368
0000a0 d9 d8 29 be 1e b0 1b be df 62 33 3e 8b 05 91 be
       -0.16586627 -0.15203902 0.17518185 -0.2832454
0000b0 bf 14 19 be 6d f7 50 be 1a 0b 7d be 06 bf 3d bf
       -0.1494932 -0.20406885 -0.24711266 -0.74119604
0000c0 6d be e7 be 92 2d 79 be 2a 7a 34 3e 41 69 39 3e
       -0.4526247 -0.2433379 0.17624727 0.18106557
0000d0 8b a3 bb 3e 66 16 6a bf 72 0a 0d 3e 82 58 a9 3d
       0.3664821 -0.9144043 0.13773516 0.08268835
0000e0 f9 1b 2f bf 6d 2e 45 bf 91 e7 07 bd 06 68 cc be
       -0.6840206 -0.77023965 -0.033179823 -0.39923114
0000f0 5b a1 07 bf 73 72 7b 3e 96 9e 7e 3e f3 cf 3a 3d
       -0.52980584 0.24555378 0.24865183 0.045608472

linear_relu_stack.3.weight f4 [64, 64]
000000 ff 68 0a be fb d8 fc 3c 41 ec 53 ba 0c 7d 1e 3e
       -0.13516615 0.030865183 -0.0008084216 0.15477389
000010 0d ad 91 3e 55 23 53 bd 38 cd 28 3e 9b 78 48 be
       0.2845234 -0.051547367 0.16484535 -0.19577257
000020 0e e3 90 3d 42 6f a9 3d a2 32 bd bd 05 bc c4 3d
       0.07074557 0.08273174 -0.09238173 0.096061744
000030 df 3e e0 bd 11 02 82 be 99 fa d8 3d be 1e cf 3c
       -0.10949492 -0.25392202 0.10594673 0.025283214
000040 76 cb 5b be 82 e0 9c 3e 39 56 a2 bd c8 c2 8b bd
       -0.21464333 0.30640036 -0.07926602 -0.06824261
000050 c5 47 db bd 8b 61 d7 bd 23 9f 16 bd 7f a7 32 3e
       -0.10707048 -0.10516652 -0.03677286 0.17446707
000060 c7 0b 34 3e 74 7e b3 bb 7a 69 de bd 06 4e ef 3c
       0.17582618 -0.005477721 -0.10859962 0.02921201
000070 43 c8 46 bd 5e 0b 06 3d d0 27 c3 3d 39 24 17 3e
       -0.04853083 0.032725684 0.09529078 0.14759912
000080 e3 3d f9 3d 94 66 d1 3d b8 ab 4c 3e 86 c3 bc 3d
       0.12170007 0.10224643 0.1998738 0.09216981
000090 05 c9 9c bd c7 bf b0 bc 48 67 a8 3d 1e bf e3 3d
       -0.07655529 -0.021575822 0.08222824 0.11120437
0000a0 5d e0 15 3d 5a 09 62 3c 82 81 f1 bb b1 17 91 3e
       0.036590923 0.013796175 -0.007370175 0.28338388
0000b0 90 d0 02 3e d7 20 c6 bc e3 34 62 bd 4c 36 3e 3e
       0.12774873 -0.024185581 -0.055226218 0.185754
0000c0 b5 2d ea bc 32 1a 8f 3d 94 42 28 be d1 7a 6e be
       -0.028586248 0.06987418 -0.16431648 -0.23289038
0000d0 81 0e 11 3e 2b a0 82 3e aa 9a 33 3d e6 e0 bc bd
       0.14165689 0.25512823 0.04384867 -0.092225835
0000e0 47 c4 82 3c 07 fb 6b 3c ed a0 b6 3d b3 8d 5b 3e
       0.015962733 0.014403111 0.08917413 0.21440773
0000f0 7c 22 42 3d c8 bc 0a 3e 83 4c 43 3c 82 bf 6a 3d
       0.047396168 0.13548577 0.011920097 0.057311542
000100 05 29 be 3e 43 62 b9 be dc a3 10 3e 54 2c 34 bd
       0.3714067 -0.3620778 0.14125007 -0.043987587
000110 c4 4f 2c bd 3f 2d 8f bd c1 56 58 3d ab 3c 2c bd
       -0.042068258 -0.06991052 0.05281711 -0.042050045
000120 0d 26 6b 3c c7 e9 0d 3e a8 29 78 be 83 7f 0a 3e
       0.014352334 0.1385871 -0.2423464 0.13525204
000130 61 47 ae 3d 88 5d 49 bd 0e 49 82 be 31 4e 25 3e
       0.08509708 -0.049161464 -0.2544636 0.16143109
000140 b3 6e 6b bd b2 27 10 3f 9a 6e f1 3b 91 6f 2a 3d
       -0.057478618 0.5631057 0.007367921 0.041610304
000150 55 99 44 3e 51 5c 35 bd 24 ad 9f bc c1 58 d6 3a
       0.19199117 -0.044277493 -0.01949174 0.0016353355
000160 26 ac 42 bd e5 b9 b7 3e da 4d 1f be 18 e6 c9 bd
       -0.047527455 0.35884014 -0.15557042 -0.0985834
000170 d9 69 6c bc f9 3e d5 3d a4 60 1e bc 8a 88 f3 ba
       -0.014429533 0.10412402 -0.009666596 -0.001858012
000180 6f 52 1b 3d d8 49 1d 3d ac 13 ed 3b 35 7d 18 3e
       0.03792041 0.0384005 0.007235011 0.14891513
000190 18 e3 f0 bd 22 9d 90 3d e8 d6 19 bc a0 28 22 3d
       -0.11762065 0.07061221 -0.009389617 0.039589524
0001a0 c5 c3 72 3d f4 20 84 be 16 05 38 bc 46 0c 94 3f
       0.05926873 -0.2580639 -0.011231681 1.1566246
0001b0 f0 90 21 3c 70 12 c3 3c 3b 19 6a bd e4 33 20 bd
       0.009861216 0.023812503 -0.057152968 -0.039111987
0001c0 5e 6b 13 be 2e 4f 2e bd 5e 20 e6 be c5 ac 85 3e
       -0.14396426 -0.04255598 -0.4494657 0.26108375
0001d0 ee 26 2e be 57 d6 62 3d 24 cb 5b 3e 19 69 3d 3d
       -0.17007038 0.05538019 0.21464211 0.046242807
0001e0 16 ea 9d 3b 71 ef 8d 3c 1e 71 80 bc 0a ab 21 3f
       0.004819165 0.017326089 -0.015678938 0.6315161
0001f0 0f 3d 4a 3d 35 14 9c 3d 1a 95 f1 3d 10 f8 9f be
       0.049374636 0.07621042 0.11796017 -0.31243944
000200 59 d2 90 be 8c b0 22 be d2 15 25 bd d3 50 16 be
       -0.28285483 -0.1588766 -0.040304013 -0.1467927
000210 b1 5a 2d bc a8 63 2e 3e 58 24 d1 be 15 53 d4 3d
       -0.010580705 0.17030203 -0.4084804 0.10367409
000220 44 16 6d bd 69 d4 a9 3e 9f ab 44 3e e5 14 c5 be
       -0.057882562 0.3316987 0.19206093 -0.38492504
000230 d9 6d 1b 3e 27 8e be 3c d9 fe 34 3d 69 e8 07 3e
       0.15178622 0.023261143 0.044188354 0.13272251
000240 42 90 b4 3d 39 26 b2 3e ab 00 d4 3d 68 81 b2 3d
       0.088165775 0.34794787 0.1035169 0.087160885
000250 a2 7f c6 bd 70 55 5f 3d 10 3e a6 3c 1d 35 aa bb
       -0.09692313 0.05452484 0.020293266 -0.00519432
000260 53 16 a6 be bc b2 ec 3e ec 3e b7 bc 35 b9 52 3e
       -0.32438907 0.46230114 -0.02236887 0.20578463
000270 77 f5 09 3e a7 1e 35 3e 4c cb 20 be f6 20 4d 3d
       0.13472544 0.17687474 -0.15702552 0.050080262
000280 ae 8a 03 be 4d f1 77 bd 18 b4 98 3d 40 50 d2 bd
       -0.12845871 -0.060532857 0.07456225 -0.10269213
000290 c0 b5 81 bd b9 b3 07 bc 97 60 12 be 85 1d 99 3d
       -0.06333494 -0.008282595 -0.14294659 0.074763335
0002a0 b8 91 22 bd 52 94 a0 3d 16 16 25 bf 97 14 f2 3d
       -0.03968975 0.0784079 -0.64486825 0.118203335
0002b0 7a df e7 bb df 7f 08 3d d7 4e 1b be b1 cb d7 3c
       -0.007076201 0.033325072 -0.15166794 0.026342245
0002c0 6e b7 cf bd a8 4a 19 3e 84 da 25 3e c8 dd 0d be
       -0.10142408 0.14969885 0.16196638 -0.13854134
0002d0 7a 38 14 3e 9c 3f b7 be d9 9f 6f 3e 51 15 c7 3d
       0.14474669 -0.35790718 0.23400821 0.09720863
0002e0 e2 e3 b1 bd ae 72 44 3d 20 f1 17 be 85 39 70 3e
       -0.08686043 0.04796093 -0.14838076 0.23459442
0002f0 66 c4 06 bf 74 dd 30 3d a5 da b5 be 83 46 58 be
       -0.5264343 0.043179944 -0.35518375 -0.21120648
000300 f6 75 ca 3e e8 b9 58 be 6f 85 cf bd c2 b2 5b 3d
       0.39543122 -0.21164668 -0.10132872 0.053637274
000310 6b d6 f8 bb 85 5f 1d 3e c6 8b dc 3d d1 e9 dd 3d
       -0.00759392 0.15368469 0.10768847 0.108356126
000320 10 f9 fb bd 5e 7b 79 be df 19 05 be 7a 61 1a be
       -0.12303364 -0.24363467 -0.1299815 -0.15076247
000330 45 37 a6 bd f2 9b e9 3d 42 40 91 3e 0a 82 b2 bd
       -0.081160106 0.11406697 0.28369337 -0.08716209
000340 d0 7e b6 3c ca 43 e3 bc 60 f9 01 3e 18 4d 1c be
       0.022277266 -0.027742285 0.12692785 -0.15263784
000350 94 0e 46 3c de 7d 75 3d 10 bc cd 3d 8c af d4 3c
       0.012088437 0.05993449 0.10045636 0.025962614
000360 e0 86 8e 3d e3 35 ab 3d d5 09 34 bc a4 6e ba 3d
       0.06959319 0.083598875 -0.010988672 0.09103134
000370 00 5b fd bd 71 9b 55 be 67 7b 8c 3d 25 8b 54 bc
       -0.123708725 -0.20860077 0.06859475 -0.012972628
000380 16 df 1c 3d 78 dc 69 3d 47 2e 09 3b 6a af 07 3e
       0.03829869 0.05709502 0.0020932124 0.13250509
000390 0d 79 77 3b e1 be 96 bd 54 70 04 3c 37 68 f6 bc
       0.003776136 -0.07360626 0.008083422 -0.03007899
0003a0 1b 5c 52 3e 4d 59 61 3e 61 12 ee bd 34 95 a6 be
       0.20542948 0.22006722 -0.11624599 -0.32535708
0003b0 d8 0b aa bd a8 37 e1 3d f3 94 9f 3a 04 de b2 bc
       -0.0830304 0.10996944 0.0012175128 -0.02183438
0003c0 0b af 2b 3e 05 dc c3 3d cc 4c af 3d 18 be b6 bd
       0.16765992 0.0956345 0.0855957 -0.08922976
0003d0 e4 72 c5 bd 5a a1 3a 3d 35 af 86 bc 1a d4 a7 3d
       -0.09641054 0.045564033 -0.016440967 0.08194752
0003e0 5e 8b 8d 3d de d3 8c 3c 89 85 2b bd 5b c2 63 3e
       0.06911348 0.01719087 -0.041875396 0.2224211
0003f0 6e e1 a0 3d 64 74 88 bd 57 bc ba 3d 8d d5 91 3e
       0.07855497 -0.06662825 0.09117954 0.2848324

linear_relu_stack.3.bias f4 [64]
000000 48 4c d7 be 2d 34 05 3f f2 b9 f4 3e 9d 85 94 3d
       -0.42050385 0.5203274 0.47798115 0.07252047
000010 fb dd f3 be c3 2b 4c 3f ec bf 2c 3f 30 c6 35 3f
       -0.47630295 0.79754275 0.6748035 0.71005535
000020 c7 42 62 be 3c 8b 9d 3f 7f 62 ae 3e 27 5d d2 be
       -0.22095786 1.2308116 0.34059522 -0.41086695
000030 d9 7f e6 3d ac a8 96 3e 30 35 f9 3e 44 06 c8 be
       0.11254854 0.2942556 0.4867339 -0.3906728
000040 61 3c 4f 3f 3a 32 92 3d ff 07 07 bf b2 dc 68 3e
       0.80951506 0.07138486 -0.52746576 0.22740439
000050 97 3f 76 3e 6c 27 a1 3d 08 8e 1a 3e 30 b1 91 3e
       0.24047695 0.07868847 0.15093243 0.28455496
000060 cb 14 15 3e 53 fc 36 bd 8d ec 08 3e bc ca 43 be
       0.14558713 -0.04467423 0.13371487 -0.19120306
000070 84 6a 93 3d 34 0f 51 3c 42 c6 24 be 3a f3 b0 be
       0.071980506 0.012759972 -0.16091254 -0.34560567
000080 eb 68 9c be d5 21 1a be d0 9e d8 3e f8 15 49 3e
       -0.30548796 -0.15051968 0.42308664 0.19637287
000090 20 6e 46 3e 15 1f be 3e 64 4c d6 3d 17 e0 cc bd
       0.19377947 0.3713309 0.10463789 -0.10003679
0000a0 ef 46 8e 3e a1 45 99 bd 25 a5 1f bf 35 1b bf 3e
       0.27788493 -0.07483984 -0.62361366 0.37325445
0000b0 40 ce c4 be cf 97 c5 3e f3 5f b0 3e 26 11 67 3e
       -0.38438606 0.38592383 0.34448203 0.22565135
0000c0 fc 2b 5d 3e 83 5f eb bd a3 96 33 bf 2d 57 27 be
       0.2159881 -0.11492827 -0.7015173 -0.16341849
0000d0 d4 b6 04 be ba 07 94 bd 7c dc 10 be d5 44 c9 bd
       -0.12960368 -0.07228036 -0.14146608 -0.09827582
0000e0 3a 05 01 bf d2 a8 09 3f 34 aa de 3e 6c e3 67 3e
       -0.503986 0.53773224 0.4348923 0.22645348
0000f0 70 65 87 be 97 d8 84 bd 32 80 85 be d7 63 77 bd
       -0.26444578 -0.06486624 -0.26074368 -0.06039795

linear_relu_stack.6.weight f4 [64, 64]
000000 4a 34 5b bd 84 af 4e 3e 01 20 74 3e 71 94 d6 3d
       -0.053516664 0.20184141 0.23840334 0.10477532
000010 82 e0 ea bd 3a 91 72 be 18 e2 0c 3f 60 80 83 be
       -0.11468603 -0.23688212 0.5503249 -0.2568388
000020 49 f3 ea be 17 48 8d bc c4 a7 df 3b e5 b0 66 3d
       -0.45888737 -0.01724629 0.006825419 0.056321044
000030 9a 11 b4 3e 32 de b8 be 25 05 4e be bd 05 c3 bd
       0.3516968 -0.36107022 -0.2011915 -0.09522579
000040 44 d2 7e 3e 2f 36 cd 3d c7 2a 03 be 74 4e 8a be
       0.24884897 0.100201 -0.12809287 -0.2701298
000050 9f d5 9c bd 3f 0a f3 bd 37 1c ad 3e 34 2a 54 3d
       -0.076579325 -0.11867189 0.3381059 0.05179806
000060 9a e3 43 be 10 99 1b 3e 16 f2 8b bd 51 e7 62 3d
       -0.19129792 0.15195107 -0.068332836 0.05539638
000070 6b f2 0f be 4a 36 a9 3c e7 05 e5 3d b8 dc ac 3c
       -0.14057319 0.02065577 0.111827664 0.02110134
000080 72 c4 63 bd e2 f7 ce bd 3f 86 00 3e 74 72 04 3d
       -0.055607267 -0.10105874 0.12551211 0.032335714
000090 63 bc 94 3d 51 86 03 3e 48 b2 bf 3d 34 dc 27 be
       0.072624944 0.12844206 0.09360176 -0.16392595
0000a0 f6 cc 0d 3e d6 56 8e 3e aa 5e 38 bd 40 cc 23 3e
       0.13847718 0.27800626 -0.045012154 0.15995884
0000b0 d2 0f 14 be 9f 22 25 be 87 53 17 bf 23 09 a7 be
       -0.1445916 -0.16126488 -0.5911183 -0.32624158
0000c0 fa ee 4c be 0e c5 23 3e c2 b8 2c 3e ce c4 ea 3a
       -0.20013037 0.15993139 0.16867355 0.0017911436
0000d0 70 aa f9 3d 3b b0 44 3e 96 40 29 3d 07 bb ab 3e
       0.121907115 0.19207852 0.04132136 0.33541128
0000e0 50 f2 c9 bc fb ab 0e 3e d3 68 3c be 94 72 80 3d
       -0.024651676 0.13932793 -0.18399362 0.06271854
0000f0 e1 6f 31 bd 73 e0 cf bd 15 c4 09 be 29 ab c4 bc
       -0.043319587 -0.10150232 -0.13453706 -0.024007397
000100 e7 17 85 3d 78 ba 33 3e d4 73 92 bd 9b c4 a5 bd
       0.064987 0.17551601 -0.07150999 -0.0809414
000110 55 b6 b9 bb d7 80 2f bc c4 69 a7 be a8 00 c7 3d
       -0.0056674876 -0.01071187 -0.3269788 0.09716922
000120 7f 2c 55 be 9e f3 20 bf 0c 0f 09 3e f4 78 ed bd
       -0.20817755 -0.6287173 0.13384646 -0.115953356
000130 fd a9 e3 bd b9 4e bd 3c 65 5c d8 3d 59 9d 15 3e
       -0.11116407 0.023108827 0.10564498 0.14610805
000140 bb e5 14 3c 47 d5 47 3e b3 08 02 be a6 54 57 bb
       0.009087975 0.19514953 -0.12698631 -0.003285685
000150 ef d8 b3 3d e6 34 88 3d a8 55 4e 3e 86 5d 22 3e
       0.08781611 0.066507146 0.20149863 0.15855989
000160 9a 51 e0 bd ce 40 34 ba 03 01 0b 3e d9 4e ce 3d
       -0.10953064 -0.0006876112 0.13574605 0.10073633
000170 15 a5 18 3e c9 ee 84 be 65 bc bf bd e3 76 8d bd
       0.14906724 -0.2596343 -0.09362105 -0.069074415
000180 f8 58 52 bd f4 91 65 bd 27 92 7e 3e 8c c7 95 bd
       -0.05135438 -0.056047395 0.2486044 -0.07313451
000190 41 d1 56 3e e8 ce 90 be 69 9b 6c 3d a0 d6 f1 be
       0.20978262 -0.28282857 0.0577654 -0.47234058
0001a0 e7 91 02 bd b3 97 b1 3d f6 e3 c7 3b 60 99 f8 3d
       -0.031877425 0.086715125 0.006100173 0.12138629
0001b0 5b 3f 03 3e a4 f5 b4 3e c1 69 cc 3d 6d ed c2 3d
       0.12817137 0.3534366 0.099811085 0.095179416
0001c0 bc b6 0f 3d 26 5f 8c 3d ea ef df bc ff 95 fb bd
       0.03508638 0.068540856 -0.02733608 -0.12284469
0001d0 7b 08 12 be 6f 5c 5a 3e 2b e0 3d be 3d d9 41 be
       -0.14261048 0.21324323 -0.18542545 -0.18930526
0001e0 41 d2 96 3d c6 54 50 3e 29 08 61 3e 03 bf 99 bd
       0.073643215 0.20344839 0.21975769 -0.07507136
0001f0 7d 08 a1 3e 58 c6 31 3d 77 cc 4f bd 0d 89 ac bd
       0.3145179 0.043402046 -0.050732102 -0.08424578
000200 e3 41 b8 bd dc 11 06 3d f1 86 38 be 92 92 80 3e
       -0.08996942 0.032731876 -0.18020226 0.25111824
000210 e7 21 dc 3d 2f fc 3a bf 4e 5b 18 be b6 31 dc bd
       0.10748654 -0.7304105 -0.1487858 -0.10751669
000220 c3 bf 0a be 4f 4b 92 be 3a 68 2e bd 6e 45 71 bd
       -0.13549714 -0.2857308 -0.042579867 -0.058904104
000230 ea dc 41 bc 32 cb 8c 3e 3b 62 0a 3e 74 2c b1 be
       -0.011832455 0.27498776 0.13514034 -0.34604228
000240 fe b8 f2 3d f6 02 c6 3d db f1 2e 3e 65 7e 90 3e
       0.11851691 0.096685335 0.17084448 0.2822143
000250 c0 96 b4 bd 70 8e 29 3e 0e 69 e6 3d ef 13 b2 3e
       -0.08817816 0.16558242 0.11250506 0.34780833
000260 56 e7 ae be 9a d9 66 3e c0 40 b7 3d 66 6d fb be
       -0.3416087 0.22543946 0.08947897 -0.49106902
000270 fa fd d2 bd e8 62 48 be c5 e0 8d 3e 5b 32 68 3e
       -0.103023484 -0.1956898 0.27710548 0.22675459
000280 86 0b c0 bb 28 31 11 3d 26 f1 29 3e ba 4f 85 3d
       -0.0058607487 0.03544727 0.16595897 0.06509347
000290 c7 4a 18 be 57 4a f0 bd d1 bd dd 3d 23 97 eb 3d
       -0.14872275 -0.11732929 0.1082722 0.115034364
0002a0 92 ed 86 bd 94 b7 be 3a 66 10 a5 bc 4e c9 ec bd
       -0.06588282 0.001455056 -0.020149421 -0.11561833
0002b0 10 64 ae bd e8 84 c0 3d dc 1c 9d be a3 92 15 3e
       -0.08515179 0.0940035 -0.3068608 0.14606719
0002c0 51 62 d7 3d 14 28 1b bd 21 af 8d bb 8b cb 25 be
       0.10516799 -0.03788002 -0.0043238555 -0.16190927
0002d0 de 3e 6e 3e 70 ad 3f bc 46 ba 80 be 4e cf 9e 3e
       0.2326617 -0.011699066 -0.25142115 0.31017536
0002e0 b6 e4 b6 3d 40 32 07 be f9 fa 45 be 49 53 ac be
       0.08930342 -0.13202763 -0.1933402 -0.33657292
0002f0 ed 92 a0 3e 42 ff 8d 3d b0 cd 82 3d fe 08 3f be
       0.31362095 0.06933452 0.06386888 -0.18655774
000300 54 a1 47 bc 75 a2 87 be b5 c6 22 bd b8 1d a7 3d
       -0.01218446 -0.26491132 -0.039740283 0.08159965
000310 0f a2 16 3e 0f 60 76 3c d7 79 88 be 0b 8c 39 be
       0.14710258 0.015037551 -0.26655456 -0.18119828
000320 99 40 4f be 3f 31 a9 be ac 29 8b 3e 95 29 1c be
       -0.20239486 -0.33045384 0.2718023 -0.15250237
000330 90 88 85 be 53 fa ba be 54 d4 ca 3e 12 7d 8a 3e
       -0.2608075 -0.36519107 0.39615119 0.27048546
000340 31 37 f9 3d 09 41 5b 3e 90 14 8d bd 6f e1 9b 3d
       0.1216873 0.21411528 -0.068886876 0.076113574
000350 8e f9 99 bd a2 95 d3 bd 6a 15 a9 3d 99 fe 00 be
       -0.07518302 -0.103312746 0.082560375 -0.12597121
000360 e2 9a 98 be 30 db 01 3e 40 85 1b 3d f6 5f df 3d
       -0.29805666 0.1268127 0.037968874 0.10906975
000370 43 bc e9 3d c7 9c 3a be 66 f3 f5 3d 35 79 5a bd
       0.11412861 -0.18223868 0.12009315 -0.05333825
000380 ad 94 07 3d f2 69 31 be fc 89 8b 3e ba 0b fe 3d
       0.033100773 -0.17325571 0.2725371 0.124045804
000390 48 7e d7 be 3c e3 07 bd 57 02 f9 3c 43 f4 f2 3d
       -0.42088532 -0.033175692 0.030396624 0.118629955
0003a0 25 6a a1 be 71 df 37 be a8 1d 89 3c 25 1d 63 be
       -0.31526294 -0.1795633 0.016737774 -0.22179087
0003b0 f1 e7 81 be 8d 08 a2 be 9f ec c2 be bc d1 ae 3b
       -0.2537227 -0.3164715 -0.38071153 0.005335061
0003c0 c4 69 46 3d 19 6b 0a bd da 4f c5 bd 68 1b 82 be
       0.04844071 -0.033793543 -0.09634371 -0.25411534
0003d0 dd e7 0e bc e7 32 bb 3d e3 b9 fb 3c 9a a4 8c bc
       -0.008722273 0.09140568 0.030728286 -0.017168332
0003e0 5d 6f 33 3d 3d 86 c7 bd 40 d7 2f bc 21 6f 46 3e
       0.043807376 -0.09742401 -0.010732472 0.1937833
0003f0 0c f2 4a 3e 86 2b fe 3d 63 ad a8 bc 39 05 10 3e
       0.19818896 0.12410645 -0.02059049 0.14064492

linear_relu_stack.6.bias f4 [64]
000000 58 a0 e2 3c b7 d4 ce 3e b8 88 a1 3d 71 c1 eb 3c
       0.027664348 0.40396664 0.07887405 0.028778763
000010 63 e3 91 3e b3 0e a5 bd 20 aa cb 3e 9b a1 15 be
       0.28493795 -0.08059444 0.39778233 -0.14612429
000020 be 37 f6 3d ca 21 ee 3e ea 76 d5 be ef ab 1d 3f
       0.12022351 0.46510154 -0.41692287 0.61590475
000030 62 7d 84 3e a4 9f a3 bc 9a 34 03 3e e1 ba 1e 3f
       0.2587691 -0.019973584 0.12813035 0.62003905
000040 26 9b 31 3e 1c 21 a3 3e 06 f5 01 3f cf 23 20 3f
       0.1734434 0.31861198 0.507645 0.6255464
000050 73 95 a8 3b 4c f7 15 3f 6b 5e b8 be a9 04 ef 3e
       0.005144769 0.5858047 -0.36009535 0.46683243
000060 c3 b7 52 3e f0 ce 1e 3f c1 64 ea 3e 58 23 7b 3e
       0.20577912 0.6203451 0.45779994 0.24525201
000070 c8 51 78 3e 84 d9 95 3e b5 a5 99 3c 2e 5e 00 3e
       0.24249947 0.29267514 0.018755773 0.12535927
000080 2c 14 2a 3e 86 39 40 be c7 81 82 3d fb 87 ea bd
       0.16609257 -0.18771943 0.06372409 -0.114517175
000090 fc bc cb 3d 5f 14 ba 3e 55 ce ea 3e 90 37 bd be
       0.09948155 0.36343667 0.45860544 -0.36956453
0000a0 c2 ba 4a 3e 55 8d ae be 5c 27 03 3f bb 42 11 be
       0.19797805 -0.34092203 0.5123193 -0.14185612
0000b0 6a 92 5f be f8 e6 cc 3e 9b b3 b6 3e 62 7d e6 be
       -0.21833196 0.40019965 0.35683903 -0.45017534
0000c0 ba 02 2b be 9d f8 a7 3e d1 12 4f bc bf 7c 14 bd
       -0.16700259 0.32806864 -0.0126387635 -0.03625178
0000d0 51 0f 11 3e 50 ed 97 be ad fe 84 be f4 e4 6b bd
       0.14165999 -0.29673243 -0.25975552 -0.057591394
0000e0 10 e9 83 3e f4 b2 8d 3e 7a b9 12 3f 8d 9e 6e 3e
       0.2576375 0.27675593 0.57314265 0.2330267
0000f0 45 76 28 3d 6a 93 00 3f 7e 27 4b 3e e0 dc c2 3d
       0.041128416 0.50224936 0.19839284 0.09514785

linear_relu_stack.9.weight f4 [64, 64]
000000 db c1 58 be 65 f9 28 3d f1 41 51 bc e5 d0 29 3c
       -0.211677 0.041253466 -0.012772069 0.010364746
000010 3a e1 26 3e 69 42 e3 bd b5 4b 3a 3d 38 50 60 3d
       0.16296855 -0.11096651 0.045482356 0.054764003
000020 f3 9c 32 3d 06 3a b5 3d 15 7d 14 3d 97 fb 88 3e
       0.04360671 0.08848958 0.0362521 0.26754448
000030 7f 8f 2c bd 8d 65 85 be 0b cd b6 be 07 62 93 3e
       -0.042129036 -0.2605404 -0.3570331 0.28785726
000040 04 ce 92 be d1 e6 82 3d 0d 59 89 3e 6c 76 94 3e
       -0.28672802 0.06391681 0.26825753 0.289966
000050 cd 18 96 be c6 e5 a7 bd 11 a2 45 3e f3 d2 35 be
       -0.29315796 -0.08198123 0.19300105 -0.17756252
000060 ed 1a eb be 97 16 49 bd a7 86 01 bc e2 40 1a be
       -0.4591898 -0.04909381 -0.007905639 -0.15063813
000070 12 69 81 bd 81 8e 03 3e 40 87 86 3e 89 47 41 be
       -0.06318869 0.1284733 0.26275063 -0.18874945
000080 a5 c8 2d be 41 f4 92 bc be 43 34 3d eb 2c 5a 3e
       -0.16971071 -0.017938735 0.044009916 0.21306197
000090 92 36 13 be bd dc f6 3d ef d7 8b bc 89 67 61 3e
       -0.14376286 0.12053821 -0.017070739 0.22012152
0000a0 6d 59 8f 3d 6b f9 5c be 48 57 ec 3e c3 96 72 3e
       0.069994785 -0.2157952 0.4616034 0.23690324
0000b0 f3 88 8d be 4d dc 4b bd ef 99 30 3e bb 73 5e bc
       -0.27643546 -0.049770642 0.17246221 -0.013577397
0000c0 3c 4a 66 3e 3a 75 80 3d a0 c7 cc 3d 72 e4 1d be
       0.22489256 0.06272359 0.09999013 -0.15419176
0000d0 de 8e 5c 3e 77 17 1c 3d 9c 4c bf be ac 92 8d bb
       0.21538875 0.038108315 -0.37363136 -0.004320463
0000e0 53 df 37 be 95 bb 70 3e 46 26 15 3e a7 a8 50 bd
       -0.17956285 0.23509057 0.14565381 -0.05094209
0000f0 54 cd 41 3d f4 82 fa be e7 f4 fc bc 44 03 4b 3e
       0.047314957 -0.48928034 -0.030878497 0.19825464
000100 83 0a c6 bd 1b b0 91 3e ae 58 2a be 25 49 28 be
       -0.09669974 0.2845467 -0.16635391 -0.16434152
000110 66 d4 ae bd d4 aa 64 3c 34 b0 d1 3c b0 99 0c 3d
       -0.085366055 0.013956744 0.025596716 0.034326255
000120 49 85 3b bf ca 24 ee bc 28 cc 1e 3e 79 ec d7 be
       -0.7325025 -0.029070277 0.15507567 -0.42172602
000130 54 49 49 be 01 a4 8c 3d c8 cd 87 3e 25 7b ef bd
       -0.19656879 0.06867219 0.26524186 -0.1169341
000140 59 5c f2 bc 80 0a 97 bd eb 2c 36 3e 2a f6 24 3e
       -0.02958505 -0.073750496 0.17790572 0.16109529
000150 e0 0b e8 bd 46 2a 72 bd bb 49 10 be 7b 41 65 3e
       -0.1133039 -0.059122346 -0.14090626 0.2238826
000160 f9 ea 14 3f ec 55 98 3d 17 a8 10 be c8 0e 86 3d
       0.5817104 0.07438263 -0.14126621 0.06545788
000170 21 c8 a3 be a8 5e 0b 3e 86 dd cc bd ba b5 18 3d
       -0.31988624 0.13610327 -0.1000319 0.037282683
000180 75 06 13 be 8f 09 72 be 24 ea 0a 3e 37 8d 13 3e
       -0.14357932 -0.23636459 0.1356588 0.14409338
000190 4a 7c ec bd d4 fd ad be 36 8c 8d bd 1f bc 5f 3c
       -0.11547144 -0.33982718 -0.06911509 0.013655691
0001a0 ef 47 3f be 82 8d 52 3e 9d d5 da bd 02 08 68 3e
       -0.18679784 0.20561793 -0.10685275 0.22659305
0001b0 14 22 c0 3d ac 96 c4 3e 15 45 d7 bd 34 a7 73 be
       0.093815 0.38396204 -0.10511223 -0.23794252
0001c0 e8 71 2a 3c be 55 43 3e 3e e5 64 3e 6f ee 45 3c
       0.010403134 0.19075677 0.22353074 0.012080773
0001d0 72 87 80 be dd 67 9f be 84 43 90 bd 4a f1 b9 be
       -0.25103337 -0.3113393 -0.070441276 -0.363169
0001e0 ea 23 25 bc 70 da 8b 3c ed 56 66 3d 82 36 b2 3e
       -0.010079363 0.017071933 0.056235243 0.3480721
0001f0 2d ac 2f 3e 89 f8 0e be e3 35 9a 3c ee 73 06 3f
       0.17155524 -0.13961996 0.018824523 0.52520645
000200 38 f1 b1 3d e6 7e d4 bd d0 0c 4b bf 86 45 0e bf
       0.08688587 -0.103757665 -0.79316425 -0.55574834
000210 ac 2d b2 bc 3c 34 94 3d e3 d5 85 bd 52 07 aa be
       -0.021750294 0.072365254 -0.06534936 -0.3320871
000220 bc 83 b7 be fe 67 c6 3d 0a 47 ed 3d 4c c9 23 3e
       -0.35842693 0.09687804 0.11585815 0.15994757
000230 72 31 60 be c6 c1 32 3f a8 1d 3d 3e 83 07 43 bf
       -0.21893862 0.69826925 0.18468344 -0.76183337
000240 6f 71 81 3d c3 5a 99 3e 2b 3f 17 be b5 14 20 bf
       0.06320464 0.29952058 -0.1477019 -0.62531596
000250 76 60 62 3e c0 b7 cc bd 3e 50 c3 3e 22 f7 26 bd
       0.2210711 -0.09995985 0.38147157 -0.040763028
000260 d2 83 44 3e f5 f5 de 3e f9 52 de bd 19 16 d2 bc
       0.1919091 0.43547025 -0.108556695 -0.025645303
000270 af 50 b0 3e ad 5b 83 be 1f 24 66 be fe 17 c7 3e
       0.34436557 -0.2565588 -0.22474717 0.38885492
000280 23 e5 46 3c 56 c4 4b 3d bc ec c0 bd 88 ea 73 be
       0.012139591 0.049747787 -0.094201535 -0.23819935
000290 9a b9 a7 be 19 7d a7 be f6 30 a7 3d 0b 09 9e bf
       -0.3275879 -0.3271263 0.081636354 -1.234651
0002a0 50 85 ba 3c 44 da ff 3d 7b de 10 be 42 f7 49 3e
       0.022768646 0.12492803 -0.1414737 0.19723228
0002b0 24 6e 7d 3e ea d8 97 3e 85 21 54 be 68 68 86 be
       0.24749047 0.2965768 -0.20715912 -0.2625153
0002c0 72 d8 b9 bd 17 8d 09 3e 1e 98 4d bd 45 fc 18 bf
       -0.09074487 0.13432728 -0.0501939 -0.5975993
0002d0 f2 a2 a1 3e ec 02 1f 3e 64 aa 27 bf e7 bc 63 3e
       0.3156963 0.15528458 -0.6549437 0.2224003
0002e0 d3 dc 32 be 93 6b 67 be 6f 9c 60 3d 9c f2 2a be
       -0.1746705 -0.2259963 0.054836687 -0.1669411
0002f0 56 76 0c 3e 01 08 70 3e e8 3c e5 3c 88 01 d5 bd
       0.13717017 0.23440553 0.027983144 -0.10400683
000300 40 6e dc bc 2b ac 0c 3e 9e 89 e8 bb 3b 09 6c 3e
       -0.02690804 0.13737552 -0.0070964834 0.23050396
000310 b8 79 b5 3d 8e 7a 26 be c3 95 8c 3e 70 08 43 be
       0.08861107 -0.16257688 0.2745801 -0.19046187
000320 a3 92 88 be 7d cd 39 3e 5c a1 f0 be 54 44 87 3d
       -0.26674375 0.18144794 -0.46998107 0.066048294
000330 7b 96 39 be fb 00 17 be c6 d7 80 3d 71 9a ff 3e
       -0.1812381 -0.14746468 0.062911555 0.49922517
000340 1d bf 24 3e 1f aa 0e 3e 24 bd dc 3e 11 27 d3 bd
       0.16088529 0.13932084 0.43113053 -0.10310186
000350 eb 2f 47 3e 27 94 7a 3e 7f a5 29 bd f1 32 b9 3d
       0.19451873 0.24470578 -0.041417595 0.090429194
000360 8d 3d 8e be 34 1e 8f 3d da 20 88 3e eb f9 4c 3e
       -0.27781335 0.06988183 0.26587564 0.20017211
000370 4c c9 58 bd 35 e0 0f 3e cf fb d2 3d 13 4b 5b 3d
       -0.052926347 0.14050372 0.10301935 0.053538393
000380 ec f7 9d 3d 83 64 64 3b 1e 4a 28 bd 25 24 6e be
       0.07713303 0.0034849949 -0.04108631 -0.23255976
000390 dd 21 d6 3d 07 c2 a5 3c bd 3a 0a be 5a 14 8c be
       0.10455678 0.020234121 -0.1349897 -0.27359277
0003a0 09 7e 45 be 25 c2 ad be 6b d3 3c bd 6b 65 5c 3d
       -0.1928636 -0.33937183 -0.04610006 0.053807657
0003b0 e4 12 e7 bd ea 4b 35 3e ec 62 64 3e df ba 31 bf
       -0.112829 0.1770474 0.2230336 -0.6942577
0003c0 41 4d ad be 50 ad d9 bd ac a9 07 be 50 f5 eb bd
       -0.33848003 -0.1062876 -0.13248318 -0.11521399
0003d0 9b dd 91 be 92 df 05 be 58 c2 0f bd a5 15 6e be
       -0.28489384 -0.13073567 -0.03509745 -0.23250444
0003e0 1a 58 6c be 51 c3 3c be 84 8a c8 3e 69 52 9b 3d
       -0.23080483 -0.18433882 0.3916818 0.07584078
0003f0 99 a7 40 3e 4b 2f 02 3e 74 34 62 bb a3 f4 06 bb
       0.18813933 0.12713353 -0.0034516128 -0.0020592592

linear_relu_stack.9.bias f4 [64]
000000 d8 5f ba 3e a9 c2 b6 3e 2d 6c 82 be af 7c f6 3e
       0.36401248 0.3569539 -0.25473157 0.48142
000010 c7 e6 c0 3d 52 13 aa bb 40 e5 4f 3e 94 39 e1 bd
       0.09419017 -0.0051902914 0.20302296 -0.1099731
000020 c5 fc 92 3e 7d 88 9e 3b 87 d3 c8 3e 90 82 c0 3e
       0.28708473 0.004838048 0.39223883 0.3759961
000030 7c 05 ee 3e da 82 fe 3e 0b db 9e 3e 6a 8a 2e be
       0.4648856 0.49709207 0.31026492 -0.17044988
000040 08 4c c1 bd c1 dc 50 3d 01 fb 50 3e 97 81 81 3d
       -0.0943833 0.050991777 0.2040825 0.063235454
000050 fe 0e f3 3d 09 53 d6 3e b5 25 36 be 3b d2 cd 3c
       0.11868094 0.41860226 -0.17787822 0.02512466
000060 a1 87 b0 3d a2 5d bd 3d 33 a3 9f be 87 33 3c bb
       0.08619619 0.09246375 -0.311792 -0.0028717236
000070 34 70 f1 bd af e7 1f 3d 6e 5a 8d be a5 11 58 3e
       -0.11788979 0.03903931 -0.27608055 0.21100481
000080 16 68 62 3e 90 6b 00 bd 72 87 82 be 01 d5 67 3d
       0.22110018 -0.03135258 -0.25493962 0.05659962
000090 ce 39 9e 3d c6 14 13 3e 55 e7 28 be d0 7b 1d be
       0.07725869 0.14363393 -0.16494496 -0.15379262
0000a0 2f 42 82 be e9 97 5e 3d e4 2c 4b 3e f6 5f cd 3e
       -0.2544112 0.05434409 0.19841343 0.40112275
0000b0 d9 f1 2a be aa cd 4f be c4 de 9b 3e 55 2f 1c 3e
       -0.1669382 -0.20293298 0.30443394 0.1525243
0000c0 bc d3 8d 3d e8 d6 4b 3e 00 ba f2 3e 64 2f c0 3e
       0.06925151 0.19906199 0.47407532 0.37536156
0000d0 3f 20 32 3e 16 b2 53 bc 90 fb ed bd 8a eb 4a 3d
       0.17395113 -0.012920877 -0.11620247 0.049541034
0000e0 5c c6 76 be 3f 3f cf bd e1 e0 02 3e a4 bd 5d 3d
       -0.24099106 -0.10119485 0.12781097 0.054135934
0000f0 fd ed e1 3e 8f cd b0 be 3b 56 13 bd bc 9c ce bd
       0.44126883 -0.3453183 -0.035970908 -0.100884885

linear_relu_stack.12.weight f4 [20, 64]
000000 9e de 94 3f 08 d1 e6 bf 79 07 13 3f c1 55 9e 3f
       1.1630437 -1.8032541 0.5743328 1.236992
000010 ed f0 eb 3e 46 33 2d bf 66 e9 b8 3e 70 95 a9 3e
       0.4608225 -0.6765636 0.3611557 0.33121824
000020 87 aa 5e 3f 1c 70 16 c0 b9 3a 4f be 94 b4 18 3e
       0.86978954 -2.3505926 -0.20237245 0.14912635
000030 03 73 bb bf 2f 88 76 3f df 3f 30 3e c2 e8 53 3f
       -1.4644474 0.9630155 0.17211865 0.82777035
000040 78 d4 23 3e 7e 5f 8c bf 38 9a 83 bf 8a 43 67 be
       0.15999019 -1.0966642 -1.0281439 -0.22584358
000050 d1 a8 80 3e 8a 99 9c 3f 49 3e a1 bd 6c 1c ed be
       0.25128797 1.2234356 -0.07873208 -0.46310747
000060 10 ee 0e c0 1d 43 64 3e c8 be 7e bf 17 e0 63 3e
       -2.2332802 0.22291227 -0.9950986 0.22253452
000070 43 ce ae 3e e7 01 d0 3c ac b3 8a bf 2e 95 e0 be
       0.3414174 0.025391532 -1.0836082 -0.43863815
000080 fa da bd be ac 27 b0 3e 4a 36 d7 bf a0 96 86 3f
       -0.37081128 0.34405267 -1.6813443 1.0514717
000090 9f 5b f5 3e 1b a8 e3 3c 48 09 df 3e 2a 6f 9e 3f
       0.47921464 0.02779012 0.4356177 1.2377675
0000a0 17 8a a0 bf b3 dc 86 3d 5a 5c da 3e 82 bf bf bf
       -1.2542142 0.06585064 0.42648584 -1.4980319
0000b0 e3 31 1f bf 36 9a bd be ea f1 d1 3d a0 a1 af bf
       -0.62185496 -0.37031716 0.102512196 -1.3721199
0000c0 33 25 eb be 2b 9c 54 bf 30 49 75 bf d6 57 ed be
       -0.45926818 -0.83050793 -0.958148 -0.46356076
0000d0 14 f1 0e 3e 1d 39 4f 3e cc 04 68 3d 6a 50 02 3f
       0.13959152 0.2023663 0.0566452 0.5090395
0000e0 4e a2 e2 3e 7d 2f cf bf 93 a0 8b 3e 78 c9 26 bd
       0.44264454 -1.6186367 0.27270946 -0.04071948
0000f0 d0 42 46 c0 cc ea 83 be 04 ba db be f2 b0 c8 3d
       -3.097828 -0.25765073 -0.42915356 0.09799375
000100 4c a6 a2 3d 17 80 6b bd de 14 c5 be b3 d7 57 3e
       0.07941875 -0.057495203 -0.38492483 0.21078376
000110 9e 62 8d 3d 09 d9 a2 be 0b 44 21 3f 57 dd ce bd
       0.06903575 -0.3180621 0.6299445 -0.10100811
000120 63 b6 6b be 65 96 3e bc 24 a2 01 3d c5 f3 05 3d
       -0.23018794 -0.011632537 0.03164877 0.03270318
000130 da 40 b8 3d 2a 86 74 3e 60 18 98 bc 86 11 17 3d
       0.089967445 0.23879305 -0.01856631 0.036881946
000140 bd 3e 63 3d 5d 05 85 bc 91 9d 86 3c f4 2f b8 bd
       0.055479754 -0.016237909 0.016432555 -0.08993521
000150 e5 5b 84 3d be 9c 85 bc 27 0d 56 bd 35 66 be 3d
       0.0646284 -0.016310092 -0.052258637 0.09296838
000160 52 9f 6b bb a1 a2 a6 be 42 7b 1d bd b3 c1 3d be
       -0.0035953117 -0.3254595 -0.038447626 -0.18530922
000170 ca 58 cc bd 93 99 9c 3e a0 55 a6 be 9e e9 0f 3d
       -0.09977873 0.30585918 -0.32487202 0.035134904
000180 48 81 14 be 77 90 0b 3d b0 aa 26 3e b8 94 e4 bd
       -0.14502442 0.03407332 0.1627605 -0.11161178
000190 df 5c 8e 3e 2b 7c 97 be 34 67 f4 3c a2 fc 83 bc
       0.2780523 -0.2958692 0.029834367 -0.016111676
0001a0 22 9b 79 3e 32 cf 88 3d 38 39 ee bd f2 e8 fa 3c
       0.24375585 0.06680144 -0.11632007 0.030628655
0001b0 88 26 a1 3b 8d d2 82 3e 97 b5 db 3d 58 4e e8 3c
       0.0049179234 0.25551262 0.10727995 0.02835767
0001c0 ab 41 f3 3d f3 5c 23 3e 4e d5 58 3e 63 16 a5 bd
       0.118777595 0.15953426 0.2117512 -0.080609106
0001d0 e4 1a df bd 47 45 87 3d ff da 0d be 3a 8d 75 be
       -0.10893801 0.066050105 -0.13853072 -0.23979655
0001e0 79 cb d0 bd 33 48 9d 3b 49 92 62 be 71 71 01 3e
       -0.10195059 0.0047998666 -0.22126116 0.1264093
0001f0 9d cc 16 3b d6 a6 0f 3e ba 08 72 3e 8d e8 17 3e
       0.0023010143 0.14028487 0.23636141 0.14834805
000200 8e 18 4b 3d 88 91 8a 3d ce 8b cc bc 0a c9 19 3e
       0.049583964 0.06766039 -0.024969008 0.15018097
000210 dd 01 7d bc 6f f4 36 be d6 5a 06 3e 00 8d 22 3e
       -0.015442339 -0.17866682 0.13120589 0.158741
000220 69 c0 42 bd 1b 7e 77 be 65 06 31 be 12 76 3a 3e
       -0.047546778 -0.24169199 -0.17287596 0.18209103
000230 05 c3 ee bc 34 15 3c 3e 36 34 d8 3d b5 2f 38 3d
       -0.029145727 0.18367463 0.105568334 0.044967372
000240 3d ab 90 be 12 73 cb bc 83 8a 6e be 20 a6 6b 3d
       -0.28255644 -0.024835143 -0.23295026 0.057531476
000250 93 d5 7e 3c 8e 1f 21 3d ff d3 cb bd af e4 1f be
       0.01555385 0.039336734 -0.099525444 -0.1561458
000260 7e ed 5a 3d e6 a4 70 3d a1 78 db 3e 56 cd d9 3d
       0.053449146 0.05875101 0.4286547 0.10634868
000270 9f 49 94 3d 14 cd 88 3c e3 99 83 bc a9 17 07 bd
       0.072406046 0.016699351 -0.01606459 -0.03298155
000280 22 05 ec 3d 17 a7 4e 3d 8a 90 7a 3e 27 4a 1f 3d
       0.115244165 0.050452318 0.244692 0.038889077
000290 e7 5d cf bd 9b ac bd bd f9 17 90 3e c8 f4 ee bc
       -0.10125332 -0.092614375 0.2814329 -0.029169455
0002a0 54 9e 07 be 8b 7a c0 3d d8 85 ca 3c d0 cd 2c 3d
       -0.13243991 0.09398373 0.024722025 0.042188466
0002b0 2c 29 d2 bd d0 60 21 be f4 74 c4 bc 10 f7 0c 3d
       -0.10261759 -0.15759587 -0.023981549 0.034415305
0002c0 65 d5 25 3e d6 ae 31 be 21 aa 82 3e 53 f7 26 3d
       0.16194685 -0.17351851 0.25520423 0.04076321
0002d0 47 e5 47 be 24 55 d3 bb 6e bb c9 bd b8 99 a0 bd
       -0.19521056 -0.0064493585 -0.098502025 -0.078418195
0002e0 40 33 86 be c7 8a 69 be 5a b2 47 be f0 b2 a6 bd
       -0.26210976 -0.22806846 -0.1950163 -0.08139598
0002f0 60 26 47 3d 6e b8 ed bd ec 04 c2 be 6c f4 82 3e
       0.04862058 -0.11607443 -0.3789438 0.25577104
000300 3a 50 ec bd b5 af ba 3b 94 65 4e 3e 25 e0 24 3e
       -0.115387395 0.0056972154 0.20155936 0.1610113
000310 48 42 86 3c 41 e6 8f 3e 66 43 39 bf 64 bd 4d bf
       0.016389027 0.28105357 -0.72368467 -0.8036711
000320 c1 8c 53 bf 5b 15 87 3e dd 8d b4 3d c4 93 af 3e
       -0.8263665 0.2638348 0.08816121 0.34292424
000330 16 3f 8c 3c 91 cc 09 3c 32 50 a5 be 9b c2 07 3d
       0.017119925 0.008410589 -0.32287747 0.033144575
000340 d7 8a 9b 3e 80 f6 c4 3c 2e 53 e9 3d 26 d0 8f be
       0.30379364 0.024043322 0.113928184 -0.28088492
000350 66 03 cc 3d 43 58 35 3e 74 2a 8c 3d bf 2b 92 3e
       0.09961586 0.1770945 0.06844035 0.28549
000360 c0 fc 08 bf 63 32 02 be 73 2e 05 bf 3a 71 41 bd
       -0.53510666 -0.12714534 -0.52024 -0.047227122
000370 ba 51 35 bd 94 4c 64 3a f3 d3 a0 3d 13 29 20 bf
       -0.044267394 0.0008708921 0.07852926 -0.62562674
000380 cf 96 43 3e 73 5c 28 ba c9 2d eb 3d c0 3f 1a be
       0.19100498 -0.00064224674 0.11483342 -0.15063381
000390 74 f7 36 3d 15 51 91 3e c0 6b 2e bd 57 b0 5c 3e
       0.044669583 0.28382173 -0.042583227 0.21551643
0003a0 f0 97 14 bf 14 18 12 bf a6 bb 99 3d 44 bb 75 be
       -0.5804434 -0.5706799 0.07506494 -0.23997217
0003b0 23 1f 49 be f4 9a b2 3d ec d4 94 3e 7c 63 61 bf
       -0.19640784 0.08720961 0.29068696 -0.88042426
0003c0 0f d7 97 3e fa 74 12 3e e1 d4 b0 bd 64 2f 3d be
       0.29656264 0.14302436 -0.086343534 -0.1847511
0003d0 4b 41 5d bf d0 ce 2f be 57 1f 8c 3c 8d ee 67 3e
       -0.86427754 -0.17168736 0.017104788 0.22649594
0003e0 37 44 7b 3e 44 10 fd 3d 11 d7 74 3e 0c d9 79 3e
       0.2453774 0.12356618 0.23910166 0.24399203
0003f0 c6 7c 19 bf 41 68 c5 3d 25 93 6c 3e c3 6a c7 3e
       -0.59956014 0.096390255 0.23103006 0.3894864

linear_relu_stack.12.bias f4 [20]
000000 5e 91 99 3f 1a 10 f8 be f6 f5 21 3e e9 3b 28 bc
       1.1997488 -0.48449785 0.15816483 -0.01026819
000010 fa 8b 16 bd d5 ab b0 be eb 73 e3 bc dc 8f 5b 3d
       -0.036754586 -0.34506097 -0.027765235 0.053603992
000020 53 b5 08 bd 12 8e 0b 3e fe 84 c5 bd 98 4a 9d 3e
       -0.03337605 0.13628414 -0.09644507 0.30720973
000030 fe e9 c4 bd 18 42 77 bd a0 06 12 bd f3 ef e1 3d
       -0.09614943 -0.060365766 -0.03565085 0.11032095
000040 71 73 c4 bd 8f e1 6a 3d 26 00 85 bd 6a 9e 5b 3e
       -0.09592331 0.057344016 -0.06494169 0.21447149
